checkpoints/my_model_KLDiv_linear.pth (torch, 98097 bytes, 44 tensors)

weight f4 [128, 1, 3, 3]
0	0x3e1bbd73	0.15208988
1	0xbe181360	-0.14851141
2	0xbd92abcf	-0.07161676
3	0x3dea6093	0.11444201
4	0xbea74798	-0.3267181
5	0x3e5dd858	0.2166456
6	0xbdfa3e87	-0.122189574
7	0x3e0f70b9	0.14007844
8	0x3d3e7490	0.04649788
9	0xbd788eed	-0.06068318
10	0x3dc21855	0.09477297
11	0x3c88283d	0.01662075
12	0x3e213ba5	0.15745409
13	0xbe270cd6	-0.1631349
14	0xbd6928a5	-0.056923527
15	0x3d231895	0.039818365
16	0x3cba8424	0.022768088
17	0xbc7eab88	-0.015543826
18	0x3e8d16c9	0.27556446
19	0x3e0ee756	0.13955435
20	0xbd9df9c7	-0.07713657
21	0xbe721090	-0.2363913
22	0xbd6865f5	-0.05673786
23	0xbe16b873	-0.147188
24	0xbe093890	-0.13400483
25	0x3c9f99ce	0.01948252
26	0x3e4925c5	0.19643314
27	0x3e0ebd1d	0.13939328
28	0xbebc4197	-0.3676879
29	0x3e1286c2	0.14309219
30	0x3d519812	0.051170416
31	0x3e90a1d0	0.28248453
32	0x3e2a298b	0.1661741
33	0xbeabe0d6	-0.33569974
34	0xbeb10f2d	-0.3458189
35	0xbe550493	-0.20802526
36	0x3e8ffeab	0.28123984
37	0xbd6bf77e	-0.057609074
38	0x3dfca261	0.12335659
39	0xbe307750	-0.17233014
40	0x3ea36733	0.31914672
41	0xbe2ce235	-0.16883166
42	0x3e705ed5	0.23473676
43	0xbb262dc6	-0.0025356873
44	0xbe4c42f1	-0.19947411
45	0x3e299155	0.16559346
46	0xbe59366c	-0.21212167
47	0x3dc2b213	0.09506621
48	0xbdb41915	-0.087938465
49	0xbd4bc28e	-0.04974609
50	0xbea5c004	-0.3237306
51	0xbe2bcf9a	-0.16778412
52	0x3e31cef0	0.17364097
53	0xbd8ff56d	-0.07029233
54	0x3ea84aa9	0.3286946
55	0x3e8a3ac5	0.26997963
56	0xbc2de5f4	-0.010613907
57	0xbe636de3	-0.22209887
58	0x3e531d67	0.20616685
59	0x3dd5ca63	0.10438993
60	0xbe5c58c6	-0.2151824
61	0x3e5e89a9	0.217322
62	0x3e4fe903	0.2030373
63	0x3e982de4	0.29722512
64	0xbe2af734	-0.16695863
65	0xbd3a545a	-0.0454906
66	0xbcd45fc6	-0.025924575
67	0x3d14e7fd	0.036354054
68	0xbe8146e1	-0.2524939
69	0xbe8a0cbb	-0.26962838
70	0x3e226a15	0.1586078
71	0xbdbe8953	-0.09303536
72	0x3e21cde7	0.15801202
73	0x3c62031b	0.013794686
74	0x3ddb5589	0.10709674
75	0x3d8013dc	0.06253788
76	0x3de89b7b	0.113577805
77	0x3e1c268f	0.15249084
78	0xbea2f059	-0.31823996
79	0x3e1e59d4	0.15463954
80	0xbe838332	-0.25686032
81	0xbe88bca5	-0.26706424
82	0x3c01dce5	0.0079262005
83	0xbd9e53a8	-0.077308
84	0x3e493355	0.19648488
85	0xbe440735	-0.19143374
86	0xbe99fc49	-0.3007529
87	0x3e6fdfac	0.23425168
88	0xbd500b4e	-0.05079203
89	0x3e47a9f6	0.19498429
90	0x3dcb8c55	0.099388756
91	0xbe7d8968	-0.24759448
92	0x3d8f3257	0.069920234
93	0x3d9f948f	0.07792007
94	0xbe70498b	-0.23465554
95	0xbe2fbcce	-0.17161867
96	0x3dce9fe7	0.10089093
97	0x3ce8d40c	0.028421424
98	0xbe372bf7	-0.17887865
99	0xbdd3ae66	-0.10335998
100	0x3e9ceb49	0.30648258
101	0xbd96f3fe	-0.073707566
102	0x3e2ee8aa	0.17080942
103	0x3e01a562	0.12660745
104	0xbe826045	-0.25464073
105	0xbe93ef7e	-0.28893656
106	0x3e9b9919	0.30390242
107	0xbcc52769	-0.024066644
108	0x3e6be5f1	0.23036934
109	0x3d921c85	0.07134346
110	0x3dd56895	0.10420338
111	0x3e7d4e60	0.24736929
112	0x3ea15cd2	0.3151613
113	0xbe676295	-0.225962
114	0x3d2ee106	0.042695068
115	0x3e7ec832	0.24881056
116	0x3e73eec1	0.23821546
117	0x3e51d61d	0.20491834
118	0xbe803cde	-0.25046438
119	0xbe8dabc9	-0.27670124
120	0xbe549905	-0.20761497
121	0x3d089b6f	0.033351358
122	0x3e9bceaf	0.30431125
123	0xbe578e63	-0.2105041
124	0x3e377910	0.17917275
125	0xbe46bf1a	-0.19408837
126	0xbea9c14f	-0.33155295
127	0xbdbc9ce7	-0.09209614
128	0x3e3bed2f	0.18352197
129	0x3e95e917	0.29279396
130	0xbe643837	-0.2228707
131	0x3d94eef9	0.07272143
132	0x3e8e7750	0.27825403
133	0x3e55739c	0.20844883
134	0x3e54eb4e	0.20792887
135	0x3e7d3b01	0.2472954
136	0x3e74449a	0.23854294
137	0x3dd765ae	0.10517441
138	0xbe613442	-0.21992591
139	0xbe888e6f	-0.26671168
140	0xbe14e915	-0.14542039
141	0xbc9aa308	-0.018876567
142	0xbe3ce55e	-0.18446872
143	0x3e0c5901	0.13705827
144	0x3dd5af8b	0.10433873
145	0xbdaa0069	-0.083008595
146	0x3dfb6fbb	0.1227717
147	0x3ddeb88c	0.10875043
148	0x3e4d3288	0.20038807
149	0x3e68ea2c	0.2274558
150	0xbde5e64a	-0.11225565
151	0x3ea5a749	0.3235419
152	0xbd103a85	-0.03521206
153	0xbc592375	-0.0132530825
154	0xbea0e06a	-0.31421214
155	0xbe6eb65f	-0.23311757
156	0xbe478e24	-0.19487816
157	0xbe0f510a	-0.13995758
158	0x3e6d063e	0.23146912
159	0xbdde530d	-0.108556844
160	0xbe7d8a53	-0.24759798
161	0x3e04325c	0.12909836
162	0x3dc43a59	0.095814414
163	0x3e562327	0.20911847
164	0xbe47f21f	-0.19525956
165	0x3d9430b3	0.07235851
166	0xbdf2d6e8	-0.11857396
167	0xbda0f17d	-0.0785856
168	0xbe83a0f7	-0.25708744
169	0xbe1e0d5b	-0.15434782
170	0xbddd7530	-0.10813367
171	0x3e0fa213	0.1402667
172	0x3d8586a9	0.06519825
173	0x3da9360f	0.08262264
174	0x3eaaef78	0.33385825
175	0x3ea9bb1b	0.33150563
176	0x3e67233b	0.22572033
177	0x3bd8479f	0.006600335
178	0xbe6b6624	-0.22988182
179	0x3e8110c5	0.25208107
180	0xbda20763	-0.07911565
181	0xbcc761e0	-0.024338663
182	0xbe96ac4d	-0.2942833
183	0xbd8a10a9	-0.06741459
184	0xbe5b5b45	-0.21421535
185	0x3e97343c	0.2953204
186	0xbe96e519	-0.29471663
187	0xbe87b20e	-0.26503032
188	0xbcfa861b	-0.030581525
189	0xbe2e6bb2	-0.1703327
190	0x3e03099b	0.12796633
191	0xbde2b242	-0.11069156
192	0xbe189795	-0.14901574
193	0x3ccba867	0.024860574
194	0x3e83c06e	0.2573275
195	0xbe616fbd	-0.22015281
196	0x3e27e3c2	0.16395476
197	0x3e6a1b4a	0.22861972
198	0x3ead1b58	0.33809924
199	0xbe5735cc	-0.21016616
200	0x3dcacd90	0.09902489
201	0xbe74a785	-0.23892029
202	0x3e97e5c6	0.2966749
203	0xbe05a209	-0.13050093
204	0x3e3dbc20	0.18528795
205	0xbb2ebbf4	-0.0026662322
206	0xbd4c5b4b	-0.04989175
207	0xbc6fc900	-0.0146353245
208	0x3d476b45	0.048686285
209	0x3e1d9deb	0.15392272
210	0x3d4e3030	0.050338924
211	0x3dc2b4fd	0.09507177
212	0xbe99949b	-0.2999619
213	0x3e7b3197	0.24530636
214	0x3e9472dc	0.2899388
215	0x3e8fddb4	0.28098834
216	0x3e6b52ba	0.22980776
217	0xbe7920e6	-0.24328956
218	0xbdee1848	-0.11625725
219	0x3e8e4846	0.27789515
220	0xbe852bf8	-0.26010108
221	0x3e9ca9d2	0.30598313
222	0xbe91d27e	-0.28480905
223	0xbe7a3520	-0.24434328
224	0x3e234a74	0.1594637
225	0xbe78b8d9	-0.24289264
226	0xbd948f14	-0.072538525
227	0x3e75e0c9	0.2401153
228	0x3e847790	0.2587247
229	0x3ea00dd1	0.3126054
230	0xbda82a96	-0.082112476
231	0xbe890360	-0.26760387
232	0x3ea47e32	0.3212753
233	0xbdb3821b	-0.0876505
234	0xbdfcaa96	-0.12337224
235	0x3de2d77b	0.11076256
236	0xbe7355b1	-0.23763157
237	0x3e3741e7	0.17896233
238	0x3e3aef55	0.1825536
239	0xbe90dade	-0.28291982
240	0xbe96222b	-0.29322943
241	0xbcde00f0	-0.027100056
242	0x3e197189	0.14984716
243	0xbd055853	-0.032554936
244	0xbe49cb69	-0.19706501
245	0xbcbc7f9e	-0.023010071
246	0xbea003ca	-0.3125289
247	0xbe727464	-0.23677212
248	0xbe7413db	-0.238357
249	0x3e824ea3	0.2545062
250	0x3e904b17	0.2818229
251	0xbe02e083	-0.12780957
252	0xbb9c9a59	-0.004779142
253	0x3e05943c	0.13044828
254	0x3d07873f	0.033087965
255	0xbe370b36	-0.1787537

bias f4 [128]
0	0xbe80eac3	-0.2517911
1	0xbe469017	-0.19390903
2	0x3c3bd672	0.011464702
3	0xbe2fd1ab	-0.17169826
4	0x3e9ee824	0.31036484
5	0xbda7b655	-0.08189074
6	0xbe3b3954	-0.18283588
7	0xbd9b36a2	-0.0757878
8	0xbe8b0b40	-0.2715702
9	0x3e0fe040	0.14050388
10	0x3e86e01a	0.2634285
11	0xbe498ea5	-0.19683321
12	0xbdff47dc	-0.12464878
13	0x3e96abc7	0.2942793
14	0xbe7b1b3e	-0.24522111
15	0x3dab972a	0.08378442
16	0xbe8c6191	-0.27418187
17	0xbe9453b6	-0.28970116
18	0xbbaad76d	-0.005213669
19	0xbe43ef39	-0.19134225
20	0x3e2dc723	0.16970496
21	0xbdc9f5e8	-0.09861356
22	0x3c791e15	0.015204926
23	0xbe30d236	-0.17267689
24	0x3e016ee6	0.1263996
25	0x3e9e07e0	0.30865383
26	0xbd67e8a0	-0.056618333
27	0xbe46cece	-0.19414827
28	0xbea6303d	-0.32458678
29	0x3ea3f4b0	0.3202262
30	0x3e156094	0.14587623
31	0x3e0daed9	0.1383623
32	0x3d95c07b	0.07312103
33	0x3e03fe9a	0.12890092
34	0x3e001b2d	0.12510367
35	0x3e1e8758	0.15481317
36	0x3e5d378f	0.21603225
37	0xbc4944b6	-0.012284448
38	0x3e828394	0.2549101
39	0x3e549a1d	0.20761915
40	0xbc9107a7	-0.017703844
41	0xbe174234	-0.14771348
42	0x3c13876e	0.009004457
43	0x3e8509c9	0.25984028
44	0x3e521780	0.20516777
45	0xbdc16c27	-0.094444565
46	0xbd21b767	-0.039481547
47	0x3def25bb	0.116771184
48	0x3defab66	0.117026135
49	0x3ea414b6	0.3204705
50	0x3e26b49b	0.16279833
51	0x3dba6274	0.0910081
52	0x3d9e65df	0.07734274
53	0xbe9662ea	-0.2937234
54	0xbdfed75e	-0.12443422
55	0x3d2d034c	0.042239472
56	0xbe85571b	-0.2604302
57	0xbe9589e3	-0.29206762
58	0x3e5021cb	0.20325391
59	0x3de9763b	0.11399504
60	0xbe47ae69	-0.19500126
61	0x3cd7be98	0.026336
62	0x3e496e87	0.19671069
63	0x3e41cc53	0.189256
64	0x3e9cd2a5	0.3062946
65	0xbe08eba4	-0.1337114
66	0x3e1bd100	0.15216446
67	0xbe844ec7	-0.25841352
68	0xbd283da1	-0.0410744
69	0xbe571cf8	-0.21007144
70	0xbd989eb9	-0.07452149
71	0x3e453889	0.19259848
72	0x3e2cef9b	0.16888277
73	0xbe2a8238	-0.16651237
74	0xbdbf8060	-0.093506575
75	0xbd967341	-0.07346202
76	0xbe118160	-0.14209509
77	0xbe1fde88	-0.15612233
78	0x3e7d0ff6	0.2471312
79	0x3e4d14bc	0.20027441
80	0x3e8ea158	0.2785747
81	0xbe3b0e26	-0.18267116
82	0x3e7cfef8	0.24706638
83	0xbdccfa32	-0.100086585
84	0xbd990851	-0.07472289
85	0xbdf3608c	-0.11883649
86	0xbd243088	-0.040085346
87	0xbe369561	-0.17830421
88	0x3d4103e1	0.04712284
89	0xbe52c981	-0.2058468
90	0x3e0ef13c	0.13959211
91	0xbe9284f8	-0.28617072
92	0xbdfec043	-0.12439015
93	0xbe501a98	-0.20322645
94	0x3e5bcced	0.21464892
95	0x3e6107d8	0.21975648
96	0xbe8e1263	-0.27748403
97	0xbe3bf1e0	-0.18353987
98	0x3e97b160	0.29627514
99	0x3db8d59f	0.0902512
100	0x3e585380	0.21125603
101	0xbe82b2d2	-0.25527054
102	0x3dd62ea4	0.10458115
103	0x3e566973	0.20938663
104	0xbd9a673a	-0.0753922
105	0xbca7bcdc	-0.020475797
106	0x3e75bf5e	0.23998782
107	0x3db10882	0.08644201
108	0x3dbca767	0.09211617
109	0xbc8ad14e	-0.016945507
110	0xbe122153	-0.14270525
111	0xbe39da88	-0.1814977
112	0x3eaa581a	0.3327034
113	0xbd982495	-0.074288525
114	0x3e941a35	0.28926244
115	0x3e89eff4	0.26940882
116	0xbe34b54a	-0.17647281
117	0x3ce6115a	0.028084446
118	0xbdd13c5d	-0.102165915
119	0xbc6d2d88	-0.0144761875
120	0x3e5d8d46	0.21635923
121	0x3e3ef6c3	0.1864882
122	0xbe834d88	-0.2564509
123	0xbe3219f1	-0.17392708
124	0xbe706646	-0.23476514
125	0xbea32f26	-0.3187191
126	0x3e554d7b	0.20830338
127	0xbe437997	-0.19089352

weight f4 [128]
0	0x3f7fb10d	0.99879533
1	0x3f813d49	1.0096828
2	0x3f809523	1.0045513
3	0x3f7f986f	0.9984197
4	0x3f800f1d	1.0004612
5	0x3f80c5c5	1.0060354
6	0x3f7d4a1c	0.98941207
7	0x3f80db5d	1.0066944
8	0x3f7ff201	0.99978644
9	0x3f80fab1	1.0076505
10	0x3f7f15c1	0.9964257
11	0x3f8118e4	1.0085721
12	0x3f7e66df	0.9937572
13	0x3f7e1c1e	0.99261653
14	0x3f7f4231	0.99710375
15	0x3f80f300	1.0074158
16	0x3f7dfb3b	0.9921147
17	0x3f7fa4b2	0.9986068
18	0x3f7fa45f	0.99860185
19	0x3f7cb41a	0.98712313
20	0x3f7f9e07	0.99850506
21	0x3f7fbc45	0.9989665
22	0x3f7db851	0.9910937
23	0x3f7de79e	0.99181545
24	0x3f7f0ccb	0.99628896
25	0x3f7f987a	0.99842036
26	0x3f80aeb1	1.0053312
27	0x3f8059f3	1.002745
28	0x3f7da41d	0.9907854
29	0x3f7ebb2f	0.9950437
30	0x3f80a254	1.0049539
31	0x3f7f6c49	0.99774605
32	0x3f8048d0	1.0022221
33	0x3f7f7fc5	0.99804336
34	0x3f7f947e	0.99835956
35	0x3f802367	1.0010804
36	0x3f800caf	1.0003871
37	0x3f80594a	1.0027249
38	0x3f7fd6ea	0.9993731
39	0x3f7d6e29	0.98996216
40	0x3f81bf11	1.0136434
41	0x3f8029fe	1.0012815
42	0x3f80a4bf	1.0050277
43	0x3f7d62a1	0.9897862
44	0x3f7e33ea	0.99297965
45	0x3f8048d5	1.0022227
46	0x3f815405	1.0103766
47	0x3f7faa25	0.99868995
48	0x3f7ff8bd	0.9998892
49	0x3f7f4824	0.9971945
50	0x3f7f4250	0.9971056
51	0x3f81201c	1.0087924
52	0x3f7edbf1	0.99554354
53	0x3f7fece7	0.9997086
54	0x3f7cfeaf	0.98826116
55	0x3f802c68	1.0013552
56	0x3f804698	1.0021544
57	0x3f811821	1.0085489
58	0x3f7dc4e6	0.9912857
59	0x3f805314	1.0025353
60	0x3f813fb0	1.0097561
61	0x3f81e06c	1.0146613
62	0x3f8044d8	1.002101
63	0x3f7f6de1	0.99777037
64	0x3f7dfc28	0.99212885
65	0x3f7d2446	0.98883474
66	0x3f7ea434	0.99469304
67	0x3f807cf5	1.0038134
68	0x3f7e2301	0.9927216
69	0x3f7e7e3c	0.9941137
70	0x3f812c9e	1.0091741
71	0x3f7e6cbd	0.9938467
72	0x3f7eb121	0.9948903
73	0x3f81781d	1.0114781
74	0x3f82441a	1.0177033
75	0x3f807cb5	1.0038058
76	0x3f7f2178	0.99660444
77	0x3f821746	1.0163352
78	0x3f7e4391	0.9932185
79	0x3f807347	1.003518
80	0x3f7e2f03	0.99290484
81	0x3f7e9728	0.99449396
82	0x3f802d1d	1.0013767
83	0x3f7d27a0	0.9888859
84	0x3f7e37ae	0.9930371
85	0x3f805ebe	1.0028913
86	0x3f80bc67	1.0057496
87	0x3f812b93	1.0091423
88	0x3f7e73ef	0.9939565
89	0x3f7cd2ae	0.9875897
90	0x3f7e9ca4	0.99457765
91	0x3f7fd075	0.99927455
92	0x3f817bac	1.0115867
93	0x3f805c37	1.0028142
94	0x3f7f4b18	0.9972396
95	0x3f7ee907	0.9957432
96	0x3f7fd4df	0.9993419
97	0x3f814d21	1.0101663
98	0x3f7e5a3a	0.99356425
99	0x3f7efa15	0.99600345
100	0x3f807d24	1.003819
101	0x3f7d5a30	0.9896574
102	0x3f7ff31b	0.99980325
103	0x3f7e5018	0.99340963
104	0x3f7efc4f	0.9960374
105	0x3f80a040	1.0048904
106	0x3f80a5eb	1.0050634
107	0x3f7f306b	0.99683255
108	0x3f801cf2	1.0008833
109	0x3f813469	1.0094119
110	0x3f812ec6	1.0092399
111	0x3f7fcdb3	0.9992325
112	0x3f7e6f82	0.993889
113	0x3f812207	1.0088509
114	0x3f7f0bef	0.99627584
115	0x3f7fc0c2	0.999035
116	0x3f7e7b88	0.99407244
117	0x3f7ed686	0.99546087
118	0x3f810b06	1.0081489
119	0x3f7e54a3	0.99347895
120	0x3f7fa0be	0.9985465
121	0x3f7f9de7	0.99850315
122	0x3f800617	1.0001858
123	0x3f7e5177	0.99343055
124	0x3f8045da	1.0021317
125	0x3f80aa50	1.0051975
126	0x3f7dcf29	0.99144226
127	0x3f7e9436	0.994449

bias f4 [128]
0	0xbaf3f54f	-0.0018612536
1	0x3c05def0	0.008170828
2	0xbb7b5c74	-0.0038354667
3	0x3bb24154	0.0054399166
4	0x3aebb462	0.0017982835
5	0x3a0a592a	0.00052775687
6	0x3b870900	0.004120946
7	0x3c46ff5c	0.012145843
8	0x3bafe9da	0.0053684535
9	0xbad33c15	-0.0016115928
10	0xbaea8344	-0.0017891903
11	0x3bc01e03	0.0058629527
12	0xbba9b2f4	-0.0051788036
13	0x3a75850b	0.0009365833
14	0x3b8ec1d2	0.0043566013
15	0xbbf0df7b	-0.0073508597
16	0xbab79f64	-0.0014009294
17	0xbb26838e	-0.0025408003
18	0x3bab4445	0.005226644
19	0x3badc4f4	0.0053030197
20	0x3b70cfbb	0.003674491
21	0xbbc8170d	-0.0061062635
22	0x3b67d3c7	0.0035374032
23	0xbb6691c9	-0.003518211
24	0x3a0b65bb	0.0005317588
25	0x3aac1a53	0.0013130404
26	0x3c3b1ec5	0.01142091
27	0xbb69e662	-0.0035690297
28	0xba93d782	-0.0011279436
29	0xbb0ca136	-0.0021458394
30	0x3c374a68	0.011187173
31	0x3bb6dad8	0.0055802874
32	0x398dadc9	0.00027023096
33	0xbb3f5c6a	-0.002919937
34	0xbb3265cd	-0.0027221323
35	0x3ba5bde9	0.0050580394
36	0xbb3eacf3	-0.0029094785
37	0xb99d20a4	-0.00029969693
38	0xbbdc77dd	-0.006728156
39	0xbc003e71	-0.007827387
40	0xbbf3fe02	-0.0074460516
41	0x3b9ca9d2	0.0047809863
42	0x3b351eaa	0.0027636685
43	0xba826b32	-0.000995016
44	0xbb3bdaf3	-0.002866444
45	0x3a8cc1ab	0.001073887
46	0x3b6c8552	0.0036090207
47	0xb977ce1d	-0.00023632539
48	0xbb4c5719	-0.0031179844
49	0xbb1b2024	-0.002367028
50	0x3aa46303	0.0012541715
51	0x3c43affb	0.0119438125
52	0x3af47c35	0.0018652739
53	0xbb48d565	-0.0030644771
54	0xbbcf53c8	-0.006327126
55	0x3b804ca3	0.003915386
56	0xbc205cfc	-0.009787794
57	0x3b87f8f8	0.0041495524
58	0x3ba441ea	0.0050127404
59	0xbc098c75	-0.008395304
60	0x3beffb06	0.0073236255
61	0x39fdd6aa	0.00048415858
62	0x3a389f94	0.0007042822
63	0x3bcc2115	0.0062295296
64	0x3b17571e	0.0023092697
65	0x3b3bdf0f	0.0028666889
66	0x3a8a4246	0.0010548315
67	0xbbb4ae63	-0.0055139526
68	0xbc1a1746	-0.009404963
69	0xba1b543e	-0.0005925334
70	0xbc46b55c	-0.0121282
71	0xbbd4a3d7	-0.006489258
72	0xbaede54b	-0.001815
73	0x3b3aa98c	0.0028482405
74	0x3a4e18f8	0.0007861997
75	0xbc8197fe	-0.015819546
76	0x3b309d81	0.0026949348
77	0xbbc8c86d	-0.0061274082
78	0xbae7a0eb	-0.0017671859
79	0x3a3834ee	0.000702693
80	0xbb901e2a	-0.004398127
81	0xba9aad45	-0.0011800906
82	0x38af9fe5	8.374433e-05
83	0x3af1f263	0.0018459078
84	0x3af414f6	0.001862197
85	0xbb1e0376	-0.002411095
86	0x3aed95a6	0.0018126264
87	0xbc28bef4	-0.010299433
88	0x3b525e4b	0.003209966
89	0x3c294ee5	0.010333751
90	0xbbbc4ea1	-0.005746678
91	0x3a21cc9a	0.00061721506
92	0xbbf64568	-0.007515598
93	0x3a8837eb	0.0010392641
94	0x3a83c2b5	0.0010052534
95	0x3c039b35	0.00803261
96	0xbb3fd907	-0.0029273645
97	0xbaf2d6bb	-0.001852713
98	0x39ca0ccb	0.00038537974
99	0xbb49fc66	-0.0030820607
100	0x3a2771f3	0.0006387524
101	0xbad2cc01	-0.0016082526
102	0xbb78aba2	-0.0037944098
103	0xbc1804d4	-0.009278495
104	0xbad4c54b	-0.0016233114
105	0xb9e1aaa4	-0.0004304248
106	0x37e8a4bf	2.7733271e-05
107	0x3b3b1045	0.0028543633
108	0x3b822cb3	0.0039726137
109	0x3b61a955	0.0034433205
110	0x3bde1878	0.0067778192
111	0x3b364488	0.0027811844
112	0xbacd99c0	-0.001568608
113	0xb99dc2bf	-0.0003009047
114	0x3b786d3f	0.0037906913
115	0xbaf187ca	-0.0018427309
116	0xbb337cb5	-0.0027387564
117	0xbb032603	-0.002001167
118	0xbb229c5a	-0.002481243
119	0x3b125400	0.00223279
120	0xbb4cc72d	-0.0031246648
121	0x3c15924b	0.009129117
122	0xbc347e2e	-0.011016412
123	0xba0b443b	-0.00053125963
124	0x3b7c6909	0.0038514754
125	0xbbd0558e	-0.006357855
126	0xb75b76ae	-1.30810495e-05
127	0x3b9264b8	0.004467573

running_mean f4 [128]
0	0x3b954e3d	0.004556446
1	0x3ad81ac4	0.0016487469
2	0x3d7bad61	0.061444644
3	0x3cd0f045	0.025505194
4	0x3f314cf7	0.69258064
5	0x3c116d7c	0.008876201
6	0x3f4f0661	0.8086911
7	0x3c3f89c8	0.011690564
8	0x3de15c0b	0.11003884
9	0x3dbbde01	0.09173203
10	0x3daa893b	0.08326956
11	0x3dd430c0	0.10360861
12	0x3fa24b3f	1.2679213
13	0x3db1bc16	0.08678453
14	0x3ef2d6c6	0.47429484
15	0x3dc6677e	0.09687708
16	0x3f36de7a	0.7143322
17	0x3bad5467	0.0052896026
18	0x3ce0ab1d	0.027425343
19	0x3f93a06d	1.1533333
20	0x3d460c08	0.048351318
21	0x3e49155c	0.19637054
22	0x3ea49473	0.32144508
23	0x3f43e753	0.7652485
24	0x3dbdc1d6	0.09265487
25	0x3f3f15cf	0.7464265
26	0x3c08f94f	0.008360221
27	0x3c80c36e	0.015718188
28	0x3ed0cc04	0.40780652
29	0x3f1d1871	0.6136542
30	0x3e686990	0.22696519
31	0x3e5bac5f	0.21452473
32	0x3d0c41a8	0.034242302
33	0x3d0c954c	0.034322068
34	0x3e7b76e2	0.24557069
35	0x3e3d245e	0.18470904
36	0x3eb2c53f	0.34916112
37	0x3cb4ce9a	0.022071172
38	0x3da98e34	0.08279076
39	0x3f8bab98	1.0911741
40	0x3cccfc1e	0.025022563
41	0x3ddbc9d8	0.10731858
42	0x3e11b351	0.1422856
43	0x3f437e90	0.76364994
44	0x3f380192	0.71877396
45	0x3cfbba0f	0.030728368
46	0x3d957add	0.07298825
47	0x3df799d4	0.12089887
48	0x3e739e19	0.23790778
49	0x3eaab41e	0.33340544
50	0x3f8ddfbc	1.1083903
51	0x3d85ac92	0.06527056
52	0x3eedb867	0.4642975
53	0x3e093282	0.13398173
54	0x3e2685e1	0.16262008
55	0x3d364c0a	0.04450611
56	0x3b2d37f8	0.0026431065
57	0x3c39087b	0.011293526
58	0x3d4f86ea	0.050665773
59	0x3e5ff3da	0.21870366
60	0x3b0d9234	0.0021602036
61	0x3e07f2bd	0.13276191
62	0x3d5f8e57	0.054579105
63	0x3d3eb639	0.0465605
64	0x3f63d0cf	0.8899049
65	0x3f272b5f	0.65300554
66	0x3fa33551	1.2750646
67	0x3ddc9a37	0.10771602
68	0x3f8994c2	1.0748522
69	0x3f81ea32	1.0149596
70	0x3c9b1d4f	0.018934874
71	0x3f44f98a	0.76943266
72	0x3d5ee5df	0.05441844
73	0x3dd74400	0.10511017
74	0x3c40ade2	0.011760207
75	0x3cc70e3d	0.024298782
76	0x3c8c2250	0.017106205
77	0x3c297975	0.010343899
78	0x3f2b5563	0.66927165
79	0x3dc23e7f	0.094845764
80	0x3f5ee97d	0.87075025
81	0x3ece9c79	0.40353754
82	0x3e81aada	0.25325662
83	0x3f7a9c8d	0.9789513
84	0x3d413110	0.04716593
85	0x3aa4d2ea	0.0012575064
86	0x3ca9308c	0.020653032
87	0x3c43b0db	0.011944021
88	0x3f2b5607	0.6692814
89	0x3f089d50	0.5336504
90	0x3f675af1	0.9037314
91	0x3dff5f02	0.12469293
92	0x3d298fda	0.041396953
93	0x3baae560	0.005215332
94	0x3d52fff7	0.05151364
95	0x3d94bbcf	0.07262384
96	0x3cd9fe45	0.026610503
97	0x3c493309	0.012280234
98	0x3fc064a3	1.5030712
99	0x3e72110d	0.23639317
100	0x3d491933	0.049096297
101	0x3fab385a	1.3376572
102	0x3d4638a1	0.04839385
103	0x3f457693	0.77134055
104	0x3f51c85d	0.81946355
105	0x3e84d931	0.25946954
106	0x3db7681e	0.08955406
107	0x3f67fe51	0.9062243
108	0x3da08016	0.078369305
109	0x3de6c3cf	0.11267816
110	0x3e066566	0.13124618
111	0x3bcb708b	0.0062084845
112	0x3f91347b	1.1344141
113	0x3cae0749	0.021243708
114	0x3e8e068d	0.27739373
115	0x3dd284c6	0.10279231
116	0x3ef51af1	0.47872117
117	0x3ebe086f	0.3711581
118	0x3c99a6d5	0.01875631
119	0x3d096239	0.033540938
120	0x3f1a4533	0.6026184
121	0x3e869f4b	0.26293406
122	0x3d36d598	0.044637293
123	0x3ecf1bc8	0.40450883
124	0x3e227d32	0.1586807
125	0x3d9e3886	0.07725625
126	0x3f5c0d7c	0.85958076
127	0x3c24a0a4	0.010048065

running_var f4 [128]
0	0x3a67a19d	0.0008836033
1	0x395c6bcd	0.00021020994
2	0x3c81e788	0.015857473
3	0x3c4764b8	0.012170009
4	0x3e1c43c8	0.15260231
5	0x3a8ad6b8	0.0010592556
6	0x3f0345f1	0.512786
7	0x3b0d939e	0.002160288
8	0x3d363242	0.044481523
9	0x3cf2e527	0.029650284
10	0x3cda6ae7	0.026662303
11	0x3d14dd1f	0.03634369
12	0x3f847f88	1.035142
13	0x3ca78798	0.020450398
14	0x3e8d91c8	0.27650285
15	0x3d28bfe7	0.041198637
16	0x3ee12688	0.4397471
17	0x3a8ce792	0.0010750166
18	0x3bd1610f	0.006389744
19	0x3f71c036	0.94433916
20	0x3c975545	0.018473277
21	0x3db04084	0.086060554
22	0x3d8b29a4	0.06795052
23	0x3ef1bb5d	0.4721326
24	0x3cec255c	0.028826408
25	0x3e3aba27	0.18235074
26	0x3ac4b53c	0.0015007625
27	0x3beee814	0.0072908495
28	0x3e5e2758	0.21694696
29	0x3df0bc95	0.11754719
30	0x3d85c734	0.065321356
31	0x3cbe2aa9	0.023213701
32	0x3bbc96d2	0.005755284
33	0x3c231d23	0.009955677
34	0x3d409c77	0.047024217
35	0x3ca98aa0	0.020695984
36	0x3da89a4b	0.08232554
37	0x3bcc5e08	0.0062367953
38	0x3cda4775	0.026645401
39	0x3f0c53b7	0.5481524
40	0x3c0dac66	0.00864706
41	0x3d294759	0.041327808
42	0x3cfeaa4e	0.031087067
43	0x3e4cbc95	0.19993813
44	0x3ea39937	0.3195283
45	0x3c1b9b2e	0.009497447
46	0x3ccbd599	0.024882125
47	0x3d202165	0.039094348
48	0x3d06503e	0.03279137
49	0x3da148e9	0.07875235
50	0x3f32ddb6	0.69869554
51	0x3c980da8	0.0185612
52	0x3e19fc22	0.15037587
53	0x3d60fd28	0.05492893
54	0x3d1b7cd1	0.03796083
55	0x3c84e9c1	0.016224744
56	0x395ad596	0.00020869667
57	0x3b14dede	0.0022715847
58	0x3c496de5	0.012294267
59	0x3d315ab5	0.043299396
60	0x399beb22	0.0002973909
61	0x3d59c268	0.053163916
62	0x3cb17b82	0.021665338
63	0x3c47d63f	0.012197076
64	0x3e859f35	0.26098028
65	0x3eb895d6	0.36051816
66	0x3f4dd135	0.8039735
67	0x3d82d309	0.06387908
68	0x3f354259	0.70804363
69	0x3f40a695	0.75254184
70	0x3b7e3dc1	0.0038794132
71	0x3e96f3eb	0.2948297
72	0x3cec4617	0.028842015
73	0x3d1a6c54	0.037700966
74	0x3b16f541	0.0023034366
75	0x3c5c7f54	0.013458092
76	0x3b8509e9	0.0040600193
77	0x3b2ccb47	0.002636628
78	0x3e18f1ab	0.14935939
79	0x3cca1b0e	0.024671104
80	0x3e907dcc	0.28220975
81	0x3e2d48ec	0.16922349
82	0x3d8aaf8b	0.067717634
83	0x3f25694b	0.6461379
84	0x3ca23394	0.019799985
85	0x391c443e	0.00014902742
86	0x3b8f453b	0.0043722666
87	0x3b0d405e	0.0021553258
88	0x3e8ee234	0.27906954
89	0x3ea14a6b	0.3150209
90	0x3ee3a7f8	0.44464087
91	0x3d6a2dda	0.057172634
92	0x3c504644	0.012712065
93	0x3a2abc9e	0.00065130915
94	0x3ca6b8e9	0.020351844
95	0x3ce7a422	0.028276507
96	0x3c751d09	0.014960536
97	0x3b20d1df	0.0024539155
98	0x3f78be73	0.971656
99	0x3d59fbd7	0.05321869
100	0x3ca222e0	0.01979202
101	0x3fa531be	1.2905805
102	0x3c911c22	0.01771361
103	0x3e83c013	0.25732478
104	0x3effd33e	0.49965852
105	0x3dc27921	0.0949576
106	0x3ce869c3	0.028370744
107	0x3eec9e3b	0.4621447
108	0x3cbb65f2	0.02287576
109	0x3d29851f	0.04138672
110	0x3d822fe2	0.06356789
111	0x3ac802a2	0.0015259574
112	0x3ef613da	0.4806202
113	0x3bc7ca90	0.0060971454
114	0x3dbf1fa8	0.0933221
115	0x3d0e2fa1	0.03471339
116	0x3e7b5f0a	0.24547973
117	0x3dd6c2e9	0.10486395
118	0x3b9b834a	0.0047458755
119	0x3c2cdd04	0.010550741
120	0x3e9dab83	0.30794916
121	0x3dbe998e	0.09306632
122	0x3c171cef	0.009223207
123	0x3e2e00ce	0.16992494
124	0x3dc3b473	0.09555902
125	0x3cd805b2	0.026369903
126	0x3ecc3c26	0.3988964
127	0x3acd9e2d	0.0015687399

weight f4 [8, 128, 1, 1]
0	0xbc133dac	-0.008986872
1	0xbc9fae53	-0.019492304
2	0xbc4eeabd	-0.012629208
3	0xbd9fb1c2	-0.077975765
4	0x3d9dad06	0.07699017
5	0x3dd40025	0.1035159
6	0x3d19f4fa	0.037587143
7	0x3cdb6769	0.026782708
8	0x3c6cc5ec	0.014451485
9	0x3c867b51	0.016416224
10	0x3d67c796	0.056586824
11	0x3d936961	0.07197834
12	0x3d953011	0.072845586
13	0xbd0097b7	-0.031394687
14	0x3bae44dd	0.0053182677
15	0x3d153930	0.03643149
16	0xbd611629	-0.054952774
17	0xbadd0200	-0.0016861558
18	0x3d9b4f0e	0.07583438
19	0x3b2c700c	0.0026311902
20	0xba16a409	-0.0005746489
21	0xbd16a6d6	-0.0367802
22	0x3d894ae5	0.06703738
23	0x3c8b848f	0.017030982
24	0x3d0301d0	0.03198415
25	0x3c7d69fa	0.015467161
26	0x3cdc10a3	0.026863402
27	0xbc11b591	-0.008893386
28	0xbccc5f28	-0.024947718
29	0x3c938088	0.018005624
30	0xbd62cf73	-0.05537362
31	0xbdd7ec3a	-0.105431035
32	0xbd04ee48	-0.032453805
33	0x3d90c3a8	0.070685685
34	0xbd04658f	-0.032323416
35	0xbd846ac6	-0.06465678
36	0x3b804d68	0.0039154775
37	0x3db071e1	0.08615471
38	0x3ca90849	0.020633833
39	0xbd42d054	-0.04756196
40	0xbd716f45	-0.058944006
41	0xbce988b9	-0.028507577
42	0x3d477289	0.048693214
43	0x3d201737	0.03908464
44	0xbc144b83	-0.0090512065
45	0x3d28b74f	0.04119044
46	0xbd278d01	-0.040905956
47	0xbdb93cc8	-0.09044796
48	0x3d967b0b	0.07347687
49	0xbd8eddab	-0.069758736
50	0xbc9b8b10	-0.018987209
51	0x3cab6bef	0.02092549
52	0xbcb42e79	-0.021994816
53	0x3db8410f	0.08996784
54	0xba040e2f	-0.0005037514
55	0x3dd614d6	0.10453193
56	0x3dd5854b	0.10425814
57	0x3d77e8ac	0.060524628
58	0xbd18df90	-0.03732258
59	0x3cb4126b	0.021981439
60	0xbcbb52b3	-0.022866582
61	0x3da70c29	0.08156616
62	0xbd25da17	-0.04049119
63	0x3c8ac8bd	0.016941423
64	0xbc26ab42	-0.010172667
65	0xbc2ade80	-0.010429025
66	0xbc152172	-0.009102212
67	0x3d09be34	0.033628657
68	0x3c71adee	0.014750941
69	0x3c9956e3	0.018718189
70	0x3de804d4	0.11329046
71	0xbd25f1c1	-0.040513758
72	0x3cb069d3	0.021534836
73	0xbbe28a1d	-0.006913437
74	0x3e065bc6	0.13120946
75	0x3d83e76c	0.064406246
76	0x3d293988	0.04131463
77	0x3da69348	0.081335604
78	0x3c2b5716	0.010457775
79	0x3c864c2d	0.016393745
80	0x3bed4fc7	0.007242176
81	0x3daa692d	0.08320842
82	0xbd8c5ae7	-0.06853276
83	0x3d482ca1	0.048870686
84	0x3d42d081	0.047562126
85	0xbc5b0d4b	-0.0133698685
86	0x3e0b0658	0.13576639
87	0x3da4b8d9	0.080430694
88	0x3d91f95a	0.07127638
89	0x3c09ba34	0.008406211
90	0xbd22cfc7	-0.039748933
91	0xbc810299	-0.015748309
92	0xbd79bae2	-0.06096924
93	0x3d354e02	0.044263847
94	0x3d843ceb	0.06456932
95	0x3d7b77df	0.061393615
96	0x3ccda2af	0.025101988
97	0x3df18085	0.11792091
98	0x3c152ac0	0.009104431
99	0x3dcd638e	0.10028754
100	0x3db709fc	0.08937451
101	0x3c907d05	0.017637739
102	0x3c9156e7	0.017741634
103	0x3d693c50	0.056942284
104	0x3bfd6cf1	0.007733934
105	0xbdd5ec0f	-0.10445415
106	0xbdbdbd7d	-0.09264658
107	0x3d958d78	0.07302374
108	0x3d645587	0.055745628
109	0xbd14d636	-0.0363371
110	0xbcd0c7fe	-0.025485989
111	0xbdb1245f	-0.08649515
112	0xbc8c5bb4	-0.017133571
113	0x3e110b51	0.14164473
114	0xbd7d76b1	-0.06188077
115	0x3d2cb65b	0.042166095
116	0xbd4ec1d6	-0.050477825
117	0x3d0dee2d	0.03465097
118	0x3d3e35eb	0.04643814
119	0x3d6338cb	0.055474084
120	0xbb8f0ad1	-0.004365303
121	0xbd6aaec4	-0.057295576
122	0xbc89a26f	-0.016801087
123	0x3a7f77ab	0.000974531
124	0xbd9fdf90	-0.07806313
125	0xbd361d0d	-0.0444613
126	0x3d1ea700	0.038733482
127	0x3d6768d8	0.05649647
128	0xbd3c5170	-0.045976102
129	0x3dbc6c66	0.09200363
130	0x3dc84fed	0.0978087
131	0x3d29c8fc	0.04145144
132	0xbdab706a	-0.08371051
133	0xbda2d83c	-0.079514
134	0xbd0b0a8d	-0.03394561
135	0xbd94c945	-0.072649516
136	0x3d3e19b8	0.046411246
137	0x3d6647bd	0.05622076
138	0x3d459cb8	0.04824516
139	0xbdb30d03	-0.08742716
140	0x3b930473	0.0044866144
141	0xbd10386a	-0.03521005
142	0x3bc6516e	0.0060521876
143	0x3dee358c	0.11631307
144	0xbce2e82c	-0.027698599
145	0x3cfe2a44	0.031026013
146	0xbbc301ca	-0.005951141
147	0x3c21770f	0.009855046
148	0x3c8e5b0c	0.017377399
149	0x3d0af32f	0.033923324
150	0x3b63ee3e	0.0034779455
151	0xbce3f5e2	-0.027827207
152	0x3ba7a621	0.0051162397
153	0x3ad1b72a	0.0016000022
154	0x3d73876a	0.059455313
155	0x3d1b2023	0.037872445
156	0x3d82c152	0.06384529
157	0xbcf054de	-0.029337343
158	0x3db14f26	0.086576745
159	0xbd0e1dd8	-0.03469643
160	0x3dab88a8	0.083756745
161	0xbb5d29c2	-0.0033746813
162	0x3d60cd3d	0.05488323
163	0xbcac59bd	-0.021038884
164	0xbdf2d453	-0.11856904
165	0x3d4972f7	0.049181905
166	0x3cf9040b	0.030397436
167	0xbc0a776d	-0.008451325
168	0xbdfc9331	-0.12332762
169	0xbd916d1e	-0.071008906
170	0xbc172d91	-0.0092271725
171	0x3d2559e3	0.040368926
172	0x3ce524ea	0.027971704
173	0xbc822760	-0.015887916
174	0xbe0f9c4e	-0.1402447
175	0x3d84ec20	0.0649035
176	0x3cc1346c	0.023584567
177	0xbda6176d	-0.08109937
178	0xbca8adb3	-0.020590639
179	0xbdff4358	-0.12464017
180	0xbc38009b	-0.011230613
181	0xbd647e66	-0.055784605
182	0x3c8d1d25	0.017225811
183	0x3d90d64d	0.07072125
184	0xbdac0916	-0.084001705
185	0xbce53995	-0.027981559
186	0xbc5f0284	-0.01361144
187	0x3c5683d5	0.013092955
188	0xbd4877f6	-0.04894253
189	0xbe1d9bfd	-0.15391536
190	0xbd6b9dc1	-0.057523493
191	0x3ca85e47	0.020552767
192	0x3d21c2bb	0.03949235
193	0xbcf7bf5e	-0.030242618
194	0x3d22c61f	0.039739724
195	0xbe07483a	-0.13211146
196	0xbc69bbe5	-0.014265989
197	0xbd7f5315	-0.062335093
198	0xbdcfe610	-0.10151303
199	0xbc9920e9	-0.01869245
200	0xbd56f57b	-0.052480202
201	0x3de0853f	0.10962915
202	0x3d896552	0.067087784
203	0xbdaf1fe5	-0.08551005
204	0xbd5c1ea3	-0.053740155
205	0xbd2a1559	-0.041524265
206	0xbd15cf3b	-0.036574584
207	0xbd9ae43f	-0.07563066
208	0xbb2b1abd	-0.0026108467
209	0x3c4caccf	0.012492373
210	0x3d417cc5	0.04723813
211	0x3d1d0cd8	0.038342327
212	0xbca4e428	-0.020128325
213	0x3d60f53c	0.054921374
214	0x3cd7430c	0.026277088
215	0xbd123a6b	-0.035700243
216	0x3a21cba7	0.0006172009
217	0xbd47ac4e	-0.048748307
218	0xbccf2b0f	-0.025289087
219	0x3cb2a856	0.021808784
220	0x3d8aa76d	0.06770215
221	0xbd3250ba	-0.043534018
222	0x3b15f6ca	0.0022882693
223	0xbda0e336	-0.07855837
224	0x3ca88c44	0.020574696
225	0x3c1d7b74	0.009611953
226	0xbb461aa7	-0.0030228288
227	0x3d63da32	0.05562801
228	0x3d7e04cb	0.06201629
229	0xbc19e84c	-0.009393763
230	0xbd51f354	-0.051257446
231	0xbcb74b55	-0.022374788
232	0xbd3ac998	-0.04560241
233	0x3c422cf1	0.011851535
234	0x3d3c9916	0.04604443
235	0xbcd4e71e	-0.025989112
236	0x3deb3239	0.114841886
237	0x3e12dbe2	0.14341691
238	0xbb997327	-0.0046829167
239	0x3cd10009	0.025512712
240	0xbc78a37d	-0.015175697
241	0x3cdee656	0.027209442
242	0xbd7f85e1	-0.062383536
243	0x3c0037bf	0.007825791
244	0xbd2837f7	-0.041068997
245	0xbc570f14	-0.0131261535
246	0x3d01e9a0	0.031716943
247	0x3d325d42	0.04354597
248	0x3d9b0296	0.075688526
249	0x3d592c77	0.05302092
250	0xbd7a01fe	-0.061037056
251	0xbc76776a	-0.015043119
252	0x3d259a50	0.040430367
253	0xbd9b83ce	-0.07593499
254	0xbb82fea7	-0.003997642
255	0x3cfc694a	0.030811924

bias f4 [8]
0	0xbd198ff5	-0.037490804
1	0x3d377df1	0.04479784
2	0x3d3aeba8	0.045634896
3	0x3c9b385d	0.018947775
4	0x3c230bf8	0.009951584
5	0xbdd1952c	-0.102335304
6	0xbdb54ebf	-0.0885291
7	0x3d60d377	0.05488917

weight f4 [16, 8, 3, 3]
0	0xbde5588a	-0.11198528
1	0xbd57d0e7	-0.05268946
2	0xbb5b3291	-0.0033446888
3	0x3d8f1f50	0.06988394
4	0xbd977fd8	-0.07397431
5	0xbb35edd9	-0.0027760176
6	0x3cc3df85	0.023910293
7	0x3de236a5	0.11045579
8	0xbd1140fd	-0.03546237
9	0x3ca47356	0.020074528
10	0xbcb4ea45	-0.022084365
11	0x3d904a6b	0.07045444
12	0xbc9b5281	-0.01896024
13	0xbd6641de	-0.05621516
14	0x3b20b030	0.0024519078
15	0xbdbdcb39	-0.09267277
16	0x3d49702c	0.04917924
17	0x3dec3cb7	0.11535018
18	0xbdc7aae1	-0.097493894
19	0xbd55f544	-0.052235857
20	0xbd8ffd6c	-0.07030758
21	0x3c5bdafd	0.01341891
22	0x3c943b2b	0.01809462
23	0x3d8837ab	0.06651243
24	0x3db6572b	0.08903345
25	0x3d19630a	0.037447967
26	0x3bca701f	0.0061779167
27	0xbd06a982	-0.0328765
28	0xbd800c91	-0.06252397
29	0x3d45800a	0.04821781
30	0xbda92704	-0.08259395
31	0x3d118cab	0.035534542
32	0x3d839d87	0.0642653
33	0xbd56ddd0	-0.05245763
34	0x3d60e2cb	0.054903787
35	0x3e0749e6	0.13211784
36	0x3d864745	0.06556562
37	0xbd6aba8d	-0.057306815
38	0xbd109140	-0.03529477
39	0xbd994513	-0.07483878
40	0x3d5568c1	0.052101854
41	0x3dbb7e63	0.09154966
42	0x3dc5be38	0.09655422
43	0x3cbbf06e	0.022941794
44	0x3d92f6e2	0.071759954
45	0x3c9f5464	0.01944942
46	0xbcaa5b8d	-0.020795608
47	0x3c17cc5c	0.009265032
48	0xbcd9dbeb	-0.026594123
49	0x3d4cd720	0.050009847
50	0x3cb56113	0.022141015
51	0x3b091a4c	0.0020920215
52	0xbd35770a	-0.044302978
53	0xbe10a3ed	-0.14125033
54	0xbc0d8689	-0.008638033
55	0xbba425d4	-0.0050093923
56	0x3d2f0eb3	0.042738628
57	0xbdead152	-0.11465706
58	0xbdec98ef	-0.11552607
59	0xbcbc192d	-0.022961223
60	0x3dee8686	0.11646752
61	0x3cc34f2c	0.023841463
62	0x3d1ffe4f	0.039060887
63	0x3d6b897d	0.057504166
64	0x3bf0ee12	0.007352599
65	0x3e099e33	0.13439254
66	0x3d704c4f	0.058666524
67	0xbdf4ae6e	-0.11947332
68	0xbd88f8f1	-0.06688107
69	0xbd87db05	-0.066335715
70	0xbd8f9232	-0.070103064
71	0x3b92cee9	0.004480232
72	0x3dc5110f	0.09622394
73	0xbdc807ad	-0.09767089
74	0x3dc740d2	0.0972916
75	0xbc8bc0b7	-0.017059667
76	0x3c97f603	0.018549925
77	0xbc90f5d8	-0.017695352
78	0x3df6f882	0.12059118
79	0xbdda8708	-0.106702864
80	0xbdc31540	-0.095255375
81	0x3d50c7e7	0.05097189
82	0x3da3975a	0.079878524
83	0xbd0c8471	-0.034305993
84	0x3d74cbf5	0.05976482
85	0xbc88e53e	-0.016710874
86	0xbdd6b2d3	-0.10483327
87	0xbcb28c34	-0.02179537
88	0xbc937c7f	-0.0180037
89	0x3d48b224	0.048998013
90	0x3d9da8b1	0.07698191
91	0x3d85789f	0.06517147
92	0x3d9d9d34	0.07696
93	0xbd4f5e6a	-0.05062715
94	0xbdf6fa5d	-0.12059472
95	0xbbd6594b	-0.0065414063
96	0x3d0fc63c	0.03510116
97	0xbdc25d60	-0.09490466
98	0x3daac285	0.08337883
99	0xbbf2d9fd	-0.00741124
100	0xbdb0309f	-0.08603024
101	0x3dbe68ad	0.09297309
102	0x3de836b2	0.11338557
103	0xbc971f0b	-0.01844742
104	0xbd3ded66	-0.04636898
105	0x3c53533b	0.012898262
106	0xbdff6482	-0.12470342
107	0x3d915563	0.07096364
108	0x3dd3651b	0.10322019
109	0xbc7ffaea	-0.015623787
110	0xbd4b82e6	-0.04968538
111	0x3dd9aae0	0.10628295
112	0xbdc28efc	-0.09499928
113	0xbcea00cd	-0.028564835
114	0x3cf8718f	0.030327586
115	0xbda1c9ca	-0.07899816
116	0x3c8ddda1	0.017317595
117	0x3d82b622	0.06382395
118	0xbd021140	-0.031754732
119	0xbba1420e	-0.0049212044
120	0x3dc001b9	0.093753286
121	0x3b161f7e	0.0022906954
122	0x3d784232	0.060610004
123	0xbcec05c3	-0.028811341
124	0xbdc5cc30	-0.09658086
125	0x3c378bc2	0.011202754
126	0xbd5f0f53	-0.054457974
127	0xbd5af17f	-0.053452965
128	0xbdec710e	-0.11545001
129	0x3dc81019	0.097686954
130	0xbde29d43	-0.110651515
131	0xbc91eb64	-0.017812438
132	0x3ce276a8	0.02764447
133	0x3dd3a7a9	0.10334713
134	0x3d9c2160	0.07623553
135	0xbd9f839e	-0.07788776
136	0x3d17b699	0.037039373
137	0xbdc67a20	-0.09691262
138	0xba61b312	-0.00086097524
139	0xbd11ab19	-0.035563562
140	0xbe003f52	-0.12524155
141	0x3d7cfd42	0.061764963
142	0xbd8cd715	-0.06876961
143	0x3de59b6a	0.112112835
144	0x3d262580	0.040563107
145	0xbd504992	-0.050851412
146	0xbd8ac202	-0.06775285
147	0xbdbbf4c2	-0.09177543
148	0xbd9ca667	-0.07648926
149	0xbd9a1863	-0.07524183
150	0x3d427b52	0.04748089
151	0x3d42586f	0.047447618
152	0x3df878bb	0.121324025
153	0xbabfcdb0	-0.0014633443
154	0xbd038697	-0.032110777
155	0xbd5066bd	-0.05087923
156	0x3c32990f	0.01090075
157	0x3d983319	0.07431621
158	0xbdb5924d	-0.08865795
159	0xbdf3eca1	-0.11910368
160	0x3d4f1077	0.05055281
161	0xbd28c366	-0.04120197
162	0xbd15ff21	-0.036620263
163	0xbdace0c4	-0.08441308
164	0xbd89d36d	-0.067297794
165	0xbd608b04	-0.054820076
166	0xbd7beafb	-0.06150339
167	0xbdafeb20	-0.085897684
168	0xbd19cd17	-0.037549105
169	0x3e15b957	0.14621483
170	0xbd100822	-0.035164006
171	0x3d7ea589	0.062169585
172	0xbe0db46a	-0.13838354
173	0x3bc66230	0.0060541853
174	0xbd052d45	-0.032513876
175	0xbdf36005	-0.11883549
176	0x3bbbd7a2	0.0057324925
177	0x3da13e95	0.07873265
178	0xbd705218	-0.05867204
179	0x3ddf0785	0.10890106
180	0xbd204433	-0.03912754
181	0xbd6e2bd6	-0.058147274
182	0x3d332367	0.043734934
183	0x3d8e54e6	0.06949787
184	0x3da3cc25	0.07997922
185	0x3d78625f	0.06064069
186	0xbdf7d781	-0.12101651
187	0xbc8a2622	-0.016863886
188	0x3cb1f98b	0.021725437
189	0xbd59644d	-0.05307417
190	0x3dab01ac	0.08349928
191	0xbcbd2758	-0.02309005
192	0xbe002c4e	-0.12516901
193	0xbd598a7c	-0.053110585
194	0xbdc5dc66	-0.09661178
195	0x3d1a6075	0.037689645
196	0xbddad862	-0.10685803
197	0xbd33d75f	-0.043906566
198	0x3cae767a	0.021296728
199	0x3d6c20f8	0.05764863
200	0xbdbe7f9d	-0.09301684
201	0x3dcefe83	0.10107138
202	0xbd8e658e	-0.06952964
203	0xbd9e6080	-0.0773325
204	0x3d6e3655	0.058157284
205	0xbd8825d8	-0.06647843
206	0x3d95fef0	0.07324016
207	0x3dd834bc	0.10556933
208	0xbaef02db	-0.0018235104
209	0x3d121770	0.035666883
210	0xbd43cb3e	-0.04780125
211	0x3baeceda	0.005334717
212	0x3c6ba69d	0.014382985
213	0x3cd183af	0.025575487
214	0xbd19c8c6	-0.037544988
215	0xbd98574e	-0.07438527
216	0xbd4fab26	-0.05070033
217	0x3daf2137	0.08551257
218	0x3d9336e9	0.07188208
219	0xbe07d674	-0.13265401
220	0xbcd12d50	-0.025534302
221	0x3ce60cdc	0.028082304
222	0xbac7ee4b	-0.0015253512
223	0xbdd055e8	-0.10172635
224	0xbd2198b5	-0.039452273
225	0xbda6b61c	-0.08140203
226	0x3b62c927	0.003460476
227	0xbd9219fe	-0.07133864
228	0x3cdee3d9	0.027208256
229	0xbce5f6cd	-0.028071785
230	0x3c5569da	0.013025725
231	0xbd6e4f8c	-0.05818133
232	0x3e14423a	0.14478388
233	0xbd608ed2	-0.054823704
234	0xbd1d47f2	-0.03839869
235	0x3dd4fbc6	0.103995845
236	0x3d8afbd5	0.067863144
237	0xbe14972d	-0.14510794
238	0x3d631861	0.05544317
239	0xbd977795	-0.07395855
240	0xbd6eae38	-0.058271617
241	0x3c4266d8	0.01186534
242	0xbcc21f7d	-0.023696655
243	0x3d81a866	0.063309476
244	0xbd786db5	-0.0606515
245	0xbdbb44c4	-0.091439754
246	0x3bee5cf6	0.0072742654
247	0x3d0bc371	0.034121934
248	0x3dab042f	0.08350407
249	0xbd04c7c3	-0.03241707
250	0x3d4cd5b5	0.050008494
251	0xbd1816f1	-0.037131254
252	0xbdaca2fe	-0.08429526
253	0xbdd186d3	-0.10230794
254	0xbd710379	-0.058841202
255	0xbd76f93d	-0.060296286

bias f4 [16]
0	0xbe2400fb	-0.16015999
1	0xbdc0bbde	-0.09410833
2	0xbdb4041a	-0.08789845
3	0xbe782613	-0.24233274
4	0x3d6b9d12	0.05752284
5	0xbd64dba6	-0.055873536
6	0xbe0ab52d	-0.13545676
7	0xbdc01a11	-0.09379972
8	0xbcfd976d	-0.030955995
9	0x3cfab8bf	0.030605672
10	0xbe2ed6c2	-0.17074111
11	0xbbf3f478	-0.0074449144
12	0xbb95b1e7	-0.0045683268
13	0xbd843d09	-0.06456954
14	0x3db8c9c7	0.09022861
15	0xbd8913ca	-0.066932276

weight f4 [16]
0	0x3f7f4010	0.99707127
1	0x3f7ced97	0.98800033
2	0x3f7931cb	0.97341603
3	0x3f820310	1.0157185
4	0x3f7f8345	0.99809676
5	0x3f7b076a	0.9805819
6	0x3f8605d5	1.047053
7	0x3f80b694	1.0055718
8	0x3f8237a4	1.017323
9	0x3f7c5efa	0.9858242
10	0x3f8066d0	1.0031376
11	0x3f7bea95	0.9840482
12	0x3f7d6365	0.9897979
13	0x3f7ebd6b	0.9950778
14	0x3f7ebe0c	0.9950874
15	0x3f804013	1.0019554

bias f4 [16]
0	0xbccc0872	-0.02490637
1	0x3cf2a901	0.029621603
2	0x3c80b0a5	0.01570923
3	0xbcc50786	-0.024051439
4	0xbda455a4	-0.08024147
5	0xbd5ba1ec	-0.053621218
6	0xbd93542c	-0.07193789
7	0xbd395a31	-0.04525203
8	0x3ccf226a	0.025284965
9	0x3c553c82	0.0130149145
10	0xbc740542	-0.014893832
11	0xbd845f3a	-0.064634755
12	0x3d0a7946	0.03380706
13	0xbdebbd4f	-0.11510717
14	0xbd065507	-0.032795932
15	0xbd5ea954	-0.054360703

running_mean f4 [16]
0	0x3e608330	0.21925044
1	0x3e497fc8	0.19677651
2	0x3e912352	0.2834726
3	0x3df4dc4a	0.11956079
4	0x3e9fe9e5	0.31233135
5	0x3e79eeba	0.24407473
6	0x3e5714b4	0.21003991
7	0x3e5b2647	0.2140132
8	0x3e9b15f2	0.3029018
9	0x3eb47c7a	0.35251218
10	0x3e2a59a2	0.16635755
11	0x3e74ccbd	0.23906226
12	0x3e8e78be	0.27826494
13	0x3e80ab42	0.2513066
14	0x3eae1953	0.34003696
15	0x3e4f43a0	0.2024064

running_var f4 [16]
0	0x3e43ac37	0.19108663
1	0x3e312400	0.17298889
2	0x3e6ea2a1	0.23304226
3	0x3dbbb800	0.091659546
4	0x3e8134a9	0.2523549
5	0x3e40bca9	0.18821968
6	0x3e853964	0.26020348
7	0x3e7d79f4	0.24753553
8	0x3ebbc50b	0.3667377
9	0x3e36d9a5	0.17856462
10	0x3e113c74	0.14183217
11	0x3e769c11	0.24082972
12	0x3e998256	0.2998225
13	0x3e1f680f	0.15567039
14	0x3e53a64b	0.20668904
15	0x3deb8854	0.11500612

weight f4 [16, 16, 3, 3]
0	0x3d07aacb	0.033121865
1	0x3b22e14f	0.0024853533
2	0x3d2495c9	0.04018191
3	0x3cdb5968	0.02677603
4	0xbd4239ee	-0.047418527
5	0x3d4db7a1	0.05022395
6	0xbd98ed02	-0.07467081
7	0x3ce42642	0.027850274
8	0xbcba5c36	-0.022749048
9	0xbd4cecba	-0.050030448
10	0xbde80a2b	-0.113300644
11	0xbd5b9b7d	-0.053615082
12	0xbc30676e	-0.010766847
13	0x3c5624dd	0.013070312
14	0x3d2763bc	0.0408666
15	0x3ba09956	0.0049010916
16	0xbd588f7b	-0.05287121
17	0x3b4cabd2	0.0031230343
18	0x3d500336	0.050784312
19	0x3d31ad6d	0.043378282
20	0x3d92c345	0.07166151
21	0xbd99ae7b	-0.07503983
22	0xbd6b7f17	-0.05749425
23	0xbc303998	-0.010755919
24	0xbc36c227	-0.011154688
25	0x3d44b1c6	0.0480211
26	0xbc164fdf	-0.009174316
27	0xbd099282	-0.033586986
28	0x3d4f7b1c	0.050654516
29	0x3ce7e163	0.028305715
30	0x3d6029d3	0.054727387
31	0xbd4e9aeb	-0.05044071
32	0x3c87e67d	0.016589398
33	0xbdb19f12	-0.086729184
34	0xbcd5ce2e	-0.02609929
35	0x3cbe56b1	0.023234697
36	0x3ddccf1a	0.10781689
37	0x3c9e721e	0.019341525
38	0xbad66072	-0.0016355647
39	0x3c80dc5c	0.015730076
40	0xbdb0a098	-0.08624381
41	0xbd983a6d	-0.07433019
42	0x3d158c7c	0.03651093
43	0xbd578638	-0.052618235
44	0xbcc87abe	-0.02447259
45	0x3c3dc6b9	0.011583024
46	0x3d6cf4e5	0.057850737
47	0xbc9898f0	-0.018627614
48	0xbda2ca58	-0.0794875
49	0x3d68581e	0.05672466
50	0xbc9f8a85	-0.019475231
51	0xbcb72e3f	-0.022360919
52	0x3d729030	0.05921954
53	0xbc69fa91	-0.014280931
54	0x3cc25d47	0.023726119
55	0x3db5e1ef	0.08880984
56	0xbcf5ed14	-0.030020274
57	0xbe017a82	-0.1264439
58	0xbd1b755a	-0.037953712
59	0xbdfaba0f	-0.12242519
60	0xbd1524ea	-0.036412157
61	0x3d95df0d	0.07317934
62	0x3cc078da	0.023495127
63	0x3d918e8b	0.07107266
64	0xbc938d75	-0.018011788
65	0xbd2c92b1	-0.042132083
66	0xbdd782ab	-0.1052297
67	0x3d63b33c	0.055590853
68	0xbd58eb78	-0.052958935
69	0x3d9e4763	0.0772846
70	0x3daf82c7	0.08569866
71	0xbb9a3403	-0.0047059073
72	0x3c6e7dfe	0.014556406
73	0xbd5d242f	-0.053989585
74	0x3c98957a	0.018625963
75	0x3d2a0518	0.041508764
76	0x3c89ef1a	0.016837645
77	0x3d7619dd	0.06008326
78	0xbd2bd466	-0.041950606
79	0xbcff126f	-0.03113672
80	0xbcf75b1c	-0.030194812
81	0xbd0de862	-0.034645446
82	0xbd98bf93	-0.07458415
83	0xbcd69e1b	-0.026198437
84	0x3ce9b9f5	0.028531054
85	0x3db5fb2d	0.088857986
86	0x3d91d2fc	0.0712032
87	0xbde0211a	-0.109438136
88	0xbddbbd08	-0.10729414
89	0xbd395d78	-0.045255154
90	0xbda64485	-0.08118538
91	0xbd196d16	-0.037457548
92	0x3b7fed76	0.003905145
93	0xbbd8b9bc	-0.006613938
94	0x3cbc5b2a	0.02299269
95	0x3cf6423c	0.03006088
96	0xbdcc5901	-0.09977914
97	0xbd5f84ae	-0.054569893
98	0xbdcacf18	-0.09902781
99	0xbccf6eb2	-0.025321338
100	0xbcf5c3b1	-0.03000054
101	0x3d019499	0.031635854
102	0xbc3aa738	-0.011392407
103	0x3ca9bbb4	0.020719387
104	0xbc816c67	-0.01579876
105	0xbd33ed98	-0.04392776
106	0x3c544c9d	0.012957719
107	0x3ce8a7c3	0.028400308
108	0x3d44a965	0.04801311
109	0xbad23889	-0.0016038577
110	0xbc86ad61	-0.016440095
111	0x3d921e22	0.07134654
112	0xbcf93d3f	-0.030424712
113	0x390c7231	0.0001339398
114	0xbd9c5147	-0.0763269
115	0xbce60321	-0.028077664
116	0xbd1ff996	-0.039056383
117	0x3c2b4e5e	0.010455696
118	0x3da8614a	0.082216814
119	0xbcd316fc	-0.025767796
120	0xbd9dbe3a	-0.077022985
121	0xbd3792a3	-0.044817578
122	0xbe075162	-0.13214639
123	0xbd32c177	-0.043641534
124	0x3de9acde	0.11409925
125	0xbcfc08cb	-0.030765912
126	0xbae094c0	-0.0017134175
127	0x3d2d16e8	0.042258173
128	0xbdc8cdf6	-0.09804909
129	0x3da886af	0.08228814
130	0xbbee85ef	-0.0072791497
131	0xbd6a5f0e	-0.057219557
132	0x3d59872d	0.05310743
133	0xbcb12584	-0.021624334
134	0xbe10642c	-0.14100713
135	0xbc4d32e7	-0.012524343
136	0xbd7529a2	-0.059854157
137	0xbe091bf6	-0.13389573
138	0x3c08678a	0.008325467
139	0x3cf4307b	0.029808274
140	0x3dc2c1c6	0.095096156
141	0xbdc9f58c	-0.098612875
142	0xbda56ffd	-0.08078001
143	0xbc9cf2ff	-0.019158838
144	0xbc6c236c	-0.014412742
145	0x3d8948ae	0.06703316
146	0xbb74d412	-0.003735785
147	0xbd179310	-0.037005484
148	0x3c61ea30	0.013788745
149	0x3d1798b5	0.037010867
150	0xbc67acfc	-0.014140364
151	0xbd9a0533	-0.07520523
152	0x3daa627e	0.08319567
153	0xbd3643a7	-0.044498112
154	0xbca19030	-0.019722074
155	0xbda7d1c8	-0.081943095
156	0x3d105ace	0.035242848
157	0x3d5f7511	0.054555003
158	0xbd368be7	-0.044567015
159	0x3d42d469	0.04756585
160	0xbd83bffb	-0.06433102
161	0xbdec02dc	-0.11523983
162	0x3df45d37	0.11931842
163	0xbd1392e0	-0.036028743
164	0x3cf8ff09	0.030395048
165	0xbd6bd058	-0.05757174
166	0x3d191c2d	0.037380386
167	0xbd1193ba	-0.035541274
168	0xbda29d43	-0.079401515
169	0x3da075dc	0.0783498
170	0x3d2cf225	0.042223115
171	0xbd9695ba	-0.07352777
172	0xbd42ee8c	-0.047590777
173	0xbbd7ccdc	-0.0065857004
174	0x3d056f82	0.032577045
175	0x3da62607	0.08112722
176	0xbd53a247	-0.05166843
177	0xbd183ce5	-0.03716745
178	0xbcaad307	-0.020852579
179	0x3caf83f0	0.021425217
180	0x3c92004a	0.017822403
181	0x3dbbee5c	0.09176323
182	0x3c0d319b	0.008617784
183	0xbc869417	-0.016428037
184	0xbd7f714b	-0.062363904
185	0x3d385028	0.044998318
186	0xbd689522	-0.05678285
187	0x3d709bc5	0.058742303
188	0xbc8e7e88	-0.01739432
189	0xbda1de38	-0.07903713
190	0x3c870a41	0.016484382
191	0x3dab3020	0.083587885
192	0x3d2b409c	0.041809663
193	0xbda9315f	-0.0826137
194	0x3d505eba	0.05087159
195	0xbc86adc4	-0.01644028
196	0x395e4d48	0.0002120036
197	0xbd53d954	-0.051720932
198	0xbcb98d2f	-0.02265033
199	0x3d489198	0.048966974
200	0xbda100d7	-0.07861488
201	0x3d9fb6d1	0.07798541
202	0xbd62ab7c	-0.05533932
203	0xbdbe80a5	-0.09301881
204	0x3ca4018a	0.020020265
205	0x3d385415	0.045002062
206	0x3da26af1	0.07930554
207	0x3bf31351	0.007418074
208	0xbcec5bf0	-0.028852433
209	0xbd9cb8c0	-0.07652426
210	0xbcce4698	-0.025180146
211	0xbcc436a0	-0.023951828
212	0xbd4e6f5b	-0.050399166
213	0x3d9565cf	0.07294809
214	0x3d5a5521	0.05330384
215	0x3dae843b	0.08521315
216	0x3d671df2	0.056425042
217	0xbdbfdeca	-0.093686655
218	0xbd45a3db	-0.048251968
219	0x3dc45b4c	0.09587726
220	0x3cda1ae2	0.026624147
221	0xbd251822	-0.040306218
222	0x3c0ee3ac	0.008721273
223	0xbc4ec224	-0.012619529
224	0xbc64a31e	-0.013954906
225	0x3bf1123f	0.0073569114
226	0xbc8908e9	-0.016727882
227	0x3d2b229c	0.041781053
228	0x3dbf8986	0.093524024
229	0xbce4bd69	-0.027922349
230	0x3c929728	0.017894343
231	0x3d541f2d	0.051787544
232	0xbc019e71	-0.0079113105
233	0x3b98193e	0.004641681
234	0x3c8c7d63	0.017149633
235	0xbdc89b77	-0.097952776
236	0xbd03788f	-0.032097396
237	0x3bbb193b	0.005709795
238	0xbd059582	-0.032613285
239	0xbd529234	-0.05140896
240	0xbd717879	-0.058952782
241	0xbd82f5ab	-0.06394514
242	0x3d5230d3	0.051316094
243	0xbb7840b8	-0.0037880372
244	0xbd4a8c3f	-0.049450155
245	0xbdb36a6f	-0.08760535
246	0xbc9c7e01	-0.019103052
247	0x3d5189e8	0.05115691
248	0x3dac3969	0.084093876
249	0x3cb524a1	0.022112193
250	0xbd4bfde7	-0.049802687
251	0xbcadb5df	-0.021204887
252	0xbd58e260	-0.052950263
253	0xbda89f5f	-0.082335226
254	0xbd8b3df8	-0.06798929
255	0x3d6505c5	0.055913705

bias f4 [16]
0	0xbdde1020	-0.10842919
1	0x3c11cd04	0.008898977
2	0x3d96e23a	0.07367368
3	0xbd401820	-0.046898007
4	0x3d371df1	0.04470629
5	0x3ca1901a	0.019722033
6	0x3dc3dd35	0.09563676
7	0x3db271d7	0.087131195
8	0x3dbd1eb6	0.09234373
9	0x3bfed162	0.007776425
10	0x3bdf5d06	0.006816509
11	0xbcb07d9c	-0.02154427
12	0xbc50fe77	-0.012755982
13	0x3cfd82b1	0.030946108
14	0x3d127464	0.03575553
15	0x3cb56053	0.022140658

weight f4 [16]
0	0x3f8504f3	1.0392135
1	0x3f80518b	1.0024885
2	0x3f760b60	0.96111107
3	0x3f830ce7	1.0238312
4	0x3f7bd670	0.9837408
5	0x3f7ae05c	0.97998595
6	0x3f8028e7	1.0012482
7	0x3f7c29d8	0.9850135
8	0x3f7af81e	0.98034847
9	0x3f815049	1.0102626
10	0x3f780bcf	0.9689302
11	0x3f834a27	1.0257004
12	0x3f81904a	1.0122159
13	0x3f7f86fb	0.9981534
14	0x3f7cc063	0.9873106
15	0x3f7e00f4	0.99220204

bias f4 [16]
0	0x3c6eecb2	0.0145828
1	0x3c5e5615	0.013570328
2	0xbdaed0dd	-0.08535931
3	0xbde2e2ca	-0.11078413
4	0x3d03bea7	0.032164242
5	0x3d6a91d3	0.057267975
6	0xbb0f01a2	-0.0021821042
7	0x3bff20e8	0.007785905
8	0xba20efdd	-0.0006139258
9	0x3c0b2637	0.008492998
10	0x3da3e40c	0.08002481
11	0x3d6874d3	0.056752037
12	0x3d0f5680	0.034994602
13	0x3d64b6b3	0.055838298
14	0x3d62d938	0.055382937
15	0x3d8fb8b0	0.07017648

running_mean f4 [16]
0	0x3e512e0a	0.20427719
1	0x3e4e5087	0.20147906
2	0x3e585262	0.21125177
3	0x3e35cbc8	0.17753518
4	0x3ee8d359	0.45473745
5	0x3e1e22ef	0.15443014
6	0x3e719734	0.23592836
7	0x3e9eeefe	0.31041712
8	0x3e975bec	0.29562318
9	0x3ec26346	0.37966365
10	0x3e9adae3	0.30245122
11	0x3e9ab6bb	0.30217537
12	0x3e89a673	0.26884803
13	0x3e9c1aff	0.30489346
14	0x3eb52995	0.35383287
15	0x3e8abb3a	0.27095968

running_var f4 [16]
0	0x3e8abbae	0.27096313
1	0x3e25b4a2	0.16182187
2	0x3e307915	0.17233689
3	0x3e48fe37	0.19628225
4	0x3f15ecdd	0.5856455
5	0x3dc1be29	0.09460098
6	0x3e2f95a6	0.1714693
7	0x3e97a9ee	0.29621834
8	0x3ea9da68	0.33174443
9	0x3edf00b4	0.43555224
10	0x3e91dbec	0.284881
11	0x3ea6ef6e	0.32604545
12	0x3e97160a	0.29509002
13	0x3ec787d1	0.38970807
14	0x3f03ee1a	0.5153519
15	0x3e978b48	0.2959845
