checkpoints/rgb.pth (torch, 102897 bytes, 44 tensors)

conv1.weight f4 [128, 3, 3, 3]
00000000: 81d4 ff3d c895 b6bd 5f67 9bbd 4099 023e
00000010: 4f9c 1bbe a8d8 bc3d 15ae 2abc c162 ec3d
00000020: f38e 8b3c b35e b0bc bcb3 153d 7ede e3bc
00000030: 79e0 8c3d 4217 9bbd 303f 4bbd 10c3 0dbd
00000040: f2ca 063c 796e f5bc e52e 343e befb d53c
00000050: 8425 0dbe 8a34 0ebe 72c6 99bd 95dd 26be
00000060: 1a82 dbbd 8dc1 4dbd a94b 503d 99b9 033e
00000070: 5f06 17be cd18 3d3e e4bf c13d 7d54 7d3e
00000080: c5f7 f43d 5a2b 25be 11c4 0abe 45b1 e6bd
00000090: 25ee 373e 3025 88bc bb86 ef3d a5b4 7bbd
000000a0: 62a4 6d3e dce1 e6bd c7bd 093e b4a9 c13c
000000b0: 5b76 14be 1b4e e73d 5d79 febd 8b78 f63c
000000c0: 97c7 b9bc 4d85 3cbc 30e0 87be 6208 efbd
000000d0: 5cb5 9a3d 8191 18be 65b7 793e 17a8 4c3e
000000e0: c22c 1ab9 73c0 d6bd f25c 083e 59f9 813d
000000f0: 39bf ddbd 77b6 083e aea1 dd3d c015 353e
00000100: 2b92 e6bd fa76 75bd 7087 d9bc 5682 0fbb
00000110: 0651 2cbe 9626 27be 7d35 993d fb56 8abd
00000120: d399 e13d 32b3 273c 9664 4b3d 8448 273c
00000130: aae4 e53c 291d a83d c63d 5dbe a2cc 5e3d
00000140: 5547 17be 43b1 e4bd 61ac 25bd 57bb bbbd
00000150: 9781 473e e213 d0bd 0dcc 22be 3d3b 823e
00000160: 86ab 423c d80d ce3d 2163 d93d ab3b 36be
00000170: 8d55 de3b 89b8 c73d d8ea 10be c22e b7bd
00000180: 807d f53d 045d b63c 145e 02be e097 0a3d
00000190: 643c 393e eecc 2cbd 50a5 303e fcb2 a33d
000001a0: 60b5 f8bd 3fac f1bd 8c54 313e 9d27 e1bc
000001b0: 349c ed3d d171 05bc ae31 283b 5f3a ea3d
000001c0: 30ce 233e 3901 11be f046 2f3c 1905 163e
000001d0: 95aa 1d3e 7d9e bd3d a980 4bbe 06a5 4fbe
000001e0: 2ec5 2fbe 0923 c1bc 0a4f 243e 6520 29be
000001f0: bcc3 9a3d 2612 e8bd c68f 46be fe42 aebd
00000200: e6b3 8a3d 8c97 053e 7962 22be eea1 c33c
00000210: 50db 043e f28f e73d f8c3 073e 224c dc3d
00000220: 2656 023e ae3b b43c cb05 39be 62a7 22be
00000230: 0b58 a7bd 828b acbd 96d4 08be 0944 b93d
00000240: ef57 bf3c 86b5 52bd 7270 0b3d 846a fb3c
00000250: 9ba2 0a3e 5e90 1d3e a3ac b9bd 4cc8 543e
00000260: f2e3 083d 797b 64bd 5891 43be 865b 24be
00000270: 9dcc 04be 5c4a 3cbd 53f3 333e e771 5abd
00000280: 129e b2bd fbf7 243e 5f31 1e3d 425f d33d
00000290: a711 08be 3ca2 cb3d c378 30bc e0f2 13bd
000002a0: c4ea 06be b1a5 1fbd 1b32 67bd 53f1 753d
000002b0: c0b0 323c 9304 fe3b 6907 6b3e 14f0 633e
000002c0: 6469 e33d d3b3 ddbb bb0e f4bd e595 ec3d
000002d0: 5df8 1abd 1fdc 28bd 6b3d 6ebe 920b b2bc
000002e0: 620f 0bbe d8af c73d a372 66be 6f7a 49be
000002f0: 4d5f d5bd 7679 f2bd 7a96 053d 3935 c6bd
00000300: 4063 ddbd cdb1 28bc 2713 0c3e 8329 03be
00000310: 361e b13d 4344 0c3e 1492 273e 1ec8 3bbe
00000320: 5ae3 823c 9dc0 31be 4f4a 033e eea6 b3bd
00000330: c25d e23d b5d8 43bc e1d0 3cbc 528f f7bc
00000340: 120c acbc d30c 653d 5a03 043a aa01 893c
00000350: 0aa3 44be 4770 0c3e 246c 173e b854 243e
00000360: 22da 183e fafa a7bd 8cc8 1dbd f92a 2d3e
00000370: d244 fcbd 48cb 063e 1538 21be c404 bebd
00000380: 178a 513d 16fa e3bd 60c9 b83c 9815 343e
00000390: c226 2a3e 6a55 573e f19d abbd 44a9 28be
000003a0: dc25 5e3e 7cdf d9bd ebf1 17bd fa1e b33d
000003b0: 7373 21be 0d50 073e af7b d13d 45d6 8ebe
000003c0: aacb 5dbe cdfc a3bd 7cf1 e1bd d0d2 e1bd
000003d0: 7b2a 26be 1ee7 9fbd 6f61 89be 789c 6abe
000003e0: 385c 74be 6497 183e 017d b63d 46a4 fbbd
000003f0: 070d ebbc 6bdb ab3d 9d7b 213b 1672 fbbd
0.12491704 -0.08915287 -0.07588076 0.12753773 -0.15196346 0.092210114 -0.010417481 0.11542273
0.017035937 -0.021529531 0.03654836 -0.027816053 0.06878752 -0.075727955 -0.049620807 -0.034609854
0.008227097 -0.029959904 0.17596014 0.026121017 -0.13783842 -0.1388723 -0.075085536 -0.16295464
-0.10718174 -0.050233413 0.050853405 0.12863769 -0.14748524 0.18466492 0.09460428 0.24739261
0.11961321 -0.16129819 -0.13551356 -0.1126428 0.17961939 -0.016619295 0.1169562 -0.061451573
0.23207238 -0.11273548 0.134513 0.023640491 -0.14498274 0.11294194 -0.12425492 0.030086776
-0.02267818 -0.011506391 -0.2653823 -0.11671521 0.07554123 -0.14899255 0.24386366 0.19985996
-0.00014703258 -0.104859255 0.13316706 0.063463874 -0.108274885 0.13350855 0.108218536 0.17684078
-0.11258348 -0.059927918 -0.02655384 -0.0021897755 -0.16827783 -0.16323313 0.07480905 -0.067548715
0.11015668 0.010235595 0.049656473 0.01021016 0.028063137 0.08208687 -0.21605596 0.05439437
-0.14773305 -0.111666225 -0.040447596 -0.091665916 0.19483028 -0.10160042 -0.15898152 0.2543582
0.011881715 0.10061234 0.106146105 -0.17796199 0.006785101 0.09751994 -0.14152086 -0.08944465
0.11986828 0.02226115 -0.127312 0.033836246 0.18089443 -0.042187624 0.17250562 0.07993123
-0.121439695 -0.118004315 0.17317408 -0.02748471 0.11602059 -0.008144812 0.0025664377 0.11436915
0.15996623 -0.14160623 0.010698065 0.14650382 0.15397103 0.09258745 -0.19873299 -0.20277795
-0.17165062 -0.023576276 0.16045776 -0.16516264 0.075568646 -0.113315865 -0.19390783 -0.085088715
0.06772594 0.13046092 -0.15857877 0.023880925 0.12974286 0.11306752 0.1325835 0.10756709
0.12728176 0.022001114 -0.18068616 -0.15884164 -0.0817109 -0.084250465 -0.13362345 0.0904618
0.02335736 -0.051442645 0.034042783 0.030690439 0.13538592 0.15387103 -0.09066131 0.20779532
0.03342051 -0.055781815 -0.19098413 -0.16050538 -0.12968679 -0.045969352 0.1757329 -0.053331282
-0.08721556 0.16110222 0.038621303 0.10320903 -0.13287984 0.09943053 -0.010770979 -0.036120296
-0.13175493 -0.038976375 -0.05644427 0.060044598 0.010906398 0.00775201 0.22952046 0.22259551
0.11104086 -0.0067658215 -0.11916872 0.115520276 -0.037834514 -0.04122555 -0.23265617 -0.021734033
-0.13580087 0.097503364 -0.22504668 -0.19675611 -0.10418568 -0.11839573 0.03261421 -0.0967812
-0.10809946 -0.010296297 0.13679181 -0.12808804 0.086483404 0.13697915 0.16364318 -0.18338057
0.01597755 -0.17358632 0.12821315 -0.08772074 0.11053039 -0.011953522 -0.01152441 -0.030219708
-0.02100185 0.055920433 0.00050359 0.016724426 -0.1920282 0.13714705 0.14787346 0.16047943
0.14926961 -0.08202167 -0.038521335 0.16910924 -0.12317814 0.13163483 -0.1574405 -0.09278253
0.051157083 -0.111316845 0.02255696 0.17586362 0.16616347 0.21028677 -0.08379734 -0.1647082
0.2169413 -0.106383294 -0.037095945 0.08746143 -0.15766697 0.1321413 0.10228669 -0.2789785
-0.21659723 -0.08007202 -0.110323876 -0.110265374 -0.16227143 -0.07807754 -0.26832148 -0.2291125
-0.23863304 0.14901501 0.08910561 -0.12287192 -0.028692735 0.0839146 0.002464033 -0.122776195

conv1.bias f4 [128]
00000000: 7eda 8b3c a7a4 17be bfa4 89be 83ef 203d
00000010: ca22 3ebd f6b4 a0bd fd29 b6bd 015e 143e
00000020: 0d26 24be 5cf1 52bd 1dac 4bbe e1c4 81be
00000030: 2910 ce3d da73 28be bb93 10be afb5 32bc
00000040: 76fe 89bd 77ad 31bc 058a 85be ccf0 3f3e
00000050: 31ed 76be d613 39be 0988 443d 7742 01be
00000060: fceb 41be 9980 c6bd a883 d1be b9fd 0b3d
00000070: b413 d2be df30 223d bd6c 3cbe ffac 44bd
00000080: 6b89 7dbe 67a9 b3be 4b26 3ebe e400 4fbe
00000090: b433 473c 8204 353d 4157 d2bd 546f 913a
000000a0: e55c c7bd 739a b9bd 27ff d83d 3824 633e
000000b0: 2fea 183e f41d adbe 65f3 83be a283 7c3d
000000c0: 4fb2 91bd dbdd 563d 6c7c cf3d ad77 78be
000000d0: cc4d 653e ff64 083d bb5b 4e3d c0f6 acbd
000000e0: a9d5 d03d beda 45be 45d9 873d 4381 3f3e
000000f0: e08b 513d 6088 c9bd f417 5dbe 4d68 0b3e
00000100: 492b 03be c36e 14be 0535 02bc 67ba 07be
00000110: 470e 45bd eb14 d9bd ba6e 3a3d 199f 92be
00000120: f703 31be 31f4 3c3e aebf 26be abc1 c0be
00000130: d024 3d3e 8ff1 b9bd 3f6f 76be ee41 033e
00000140: ba2a 7abe 4e38 3cbe b2d8 133d db79 e4bb
00000150: 5c75 a2be a54d 6e3e ec12 033e 39ec 46bd
00000160: be3f fcbd 07c2 ecbd abcc db3b be23 463e
00000170: 52ba bebd ce04 443e fc62 3f3d 7702 24bc
00000180: b20f 293d 8655 78bd fa5c 1e3e 61df d43d
00000190: 452e afbd bc81 693d fa29 023e b3e7 aebd
000001a0: e161 fe3c 1a65 2fbe 1381 8abe cc6f b5bd
000001b0: d9a2 75be 1f33 433e acf7 2a3e b89f 15be
000001c0: 8c74 1dbe 2555 c0bd ee32 b1be 9582 a7bc
000001d0: 8ffa 6e3d 1d80 45bd 204a b33c 7268 5cbd
000001e0: 1a19 a9be 7d08 52be 2810 90be 76b8 26be
000001f0: 4712 4cbe ecbc 063e 4ccf aab9 812a 41bd
0.017071959 -0.14808904 -0.26883504 0.039290916 -0.046419896 -0.078470156 -0.088947274 0.14488985
-0.1603014 -0.05149971 -0.19889875 -0.2534552 0.10061676 -0.16450444 -0.14118855 -0.010907575
-0.06737988 -0.01084458 -0.26081863 0.187442 -0.24113919 -0.18073973 0.047981296 -0.1262301
-0.18937677 -0.09692497 -0.40920758 0.034177516 -0.41030657 0.03959739 -0.18400855 -0.048016544
-0.24759452 -0.3509018 -0.18569295 -0.20215183 0.012158323 0.044193752 -0.102705486 0.00110958
-0.09734515 -0.09062662 0.105955414 0.22181785 0.14933084 -0.33811915 -0.25771633 0.061648972
-0.07114088 0.05245767 0.101311535 -0.24264403 0.22392958 0.033299442 0.05038045 -0.08445501
0.101970024 -0.19321725 0.06633238 0.18701653 0.051158786 -0.098404646 -0.21591169 0.13614006
-0.1280948 -0.14495377 -0.007947211 -0.132547 -0.04810932 -0.10599693 0.045515753 -0.28637007
-0.17286669 0.18452527 -0.16284057 -0.37647757 0.18471074 -0.09079277 -0.24065875 0.12818119
-0.24430361 -0.18380854 0.03609533 -0.006972534 -0.31730163 0.23271807 0.12800187 -0.048565123
-0.12316845 -0.11560445 0.006707748 0.19349572 -0.093128815 0.19142458 0.04672526 -0.010010353
0.041274734 -0.060628437 0.15465155 0.10394169 -0.08553747 0.05700849 0.12711325 -0.08540287
0.031052532 -0.17128411 -0.270516 -0.08859214 -0.23987903 0.1906247 0.16696042 -0.14611709
-0.1537649 -0.0939124 -0.3460917 -0.020448009 0.05834442 -0.04821788 0.021885931 -0.053810544
-0.33026963 -0.2051105 -0.28137326 -0.16281304 -0.19928847 0.13158005 -0.00032579375 -0.047159676

bn1.weight f4 [128]
00000000: 8b87 773f 80e7 803f 173f 7f3f 3988 7b3f
00000010: e047 783f 3c0e 803f d446 7a3f 6f78 743f
00000020: d36b 803f 6b9d 7e3f ba48 833f 4d1d 813f
00000030: 0723 7b3f 1826 7f3f dfee 743f f732 7e3f
00000040: 2ba1 7c3f 2e69 803f 7de0 803f 63d8 7c3f
00000050: f7be 7d3f 9dc9 7b3f cdff 733f edff 793f
00000060: 3e7b 7e3f 9934 7b3f 20fd 7c3f d72f 763f
00000070: f7fd 803f 074b 7f3f d0c2 763f 5b9c 7e3f
00000080: 9d08 813f b9da 7a3f 2e46 763f 2137 7b3f
00000090: 03c8 7e3f 64d9 783f e24e 813f e272 803f
000000a0: 452e 833f c135 7c3f a75d 763f 6564 7b3f
000000b0: 4eec 743f a9e6 823f 3d85 7c3f e499 783f
000000c0: 52ef 7c3f 161d 7a3f 6d15 753f 4b7f 7d3f
000000d0: 4055 7e3f e437 803f 3bad 803f ad5a 7f3f
000000e0: 870c 763f be9c 803f b318 783f 7367 793f
000000f0: a591 763f 1c01 753f 18e2 7c3f db22 733f
00000100: 962b 813f 88c3 803f 085c 753f 0aa3 7a3f
00000110: 2449 803f c2ef 7b3f fa74 7c3f a6f3 833f
00000120: 5ea0 7e3f dec7 7d3f da85 803f 413d 813f
00000130: 4670 7c3f 25d8 7f3f 466e 823f 6e6f 7c3f
00000140: d0b6 823f 9b20 7e3f 90a9 7b3f ff5c 803f
00000150: e579 823f ebdd 7f3f 3226 7d3f 1f07 7f3f
00000160: f408 803f 8cbf 7d3f 29df 813f 757c 7d3f
00000170: 4996 753f bdda 7e3f a346 7f3f f1dd 813f
00000180: 76b8 7b3f 3d4f 803f d503 793f 9bfa 7b3f
00000190: e5e1 7e3f 946a 803f bb96 833f 5af9 7f3f
000001a0: ce28 813f 8904 7f3f 47b3 863f 3638 803f
000001b0: 69cf 803f 1879 7a3f a8c5 7e3f f309 833f
000001c0: 26b5 813f d6ca 7a3f c19f 7c3f 33eb 803f
000001d0: 3c3b 7b3f ed3b 803f c256 763f 493c 7a3f
000001e0: 73c5 823f 368e 763f 9ede 813f 03af 7e3f
000001f0: 68dd 7b3f e555 7f3f 9bc3 803f 0f97 773f
0.966912 1.0070648 0.9970564 0.98254734 0.9698467 1.0004344 0.97764325 0.9549627
1.0032905 0.9945895 1.0256569 1.0087067 0.9810032 0.996675 0.9567699 0.99296516
0.9868342 1.0032098 1.0068508 0.9876768 0.99119514 0.9835451 0.95312196 0.97656137
0.994068 0.9812713 0.9882374 0.9616675 1.0077504 0.9972386 0.9639101 0.9945733
1.0080754 0.97989994 0.96200836 0.98130995 0.99523944 0.9720671 1.0102198 1.003506
1.0248495 0.9851952 0.9623665 0.98200065 0.9567307 1.0226642 0.98640805 0.9710982
0.98802674 0.9770063 0.9573582 0.9902236 0.9934883 1.0017056 1.0052866 0.99747735
0.96112865 1.0047834 0.9691269 0.97423476 0.96315986 0.9570482 0.9878249 0.9497506
1.0091426 1.0059671 0.95843554 0.9790503 1.0022321 0.98412716 0.9861599 1.0308731
0.9946345 0.991331 1.0040848 1.0096818 0.98608816 0.99939185 1.0189903 0.9860753
1.021204 0.992685 0.98305607 1.002838 1.0193449 0.99947995 0.98886406 0.9962024
1.0002732 0.991204 1.0146228 0.9901803 0.9593244 0.9955252 0.9971716 1.0145856
0.9832834 1.0024182 0.9727147 0.9842927 0.9956344 1.0032525 1.0280374 0.99989855
1.0090578 0.99616295 1.0523461 1.0017154 1.0063297 0.97841024 0.9952035 1.0237411
1.0133407 0.97965753 0.98681265 1.0071777 0.9813726 1.0018288 0.9622613 0.9774824
1.0216507 0.96310747 1.0146062 0.99485797 0.98384714 0.9974044 1.0059694 0.9671487

bn1.bias f4 [128]
00000000: 37d7 65bd 6be2 2f3b 16da a4bd 98c6 803c
00000010: f0c7 8fbb 376c 49bd f4ce 12bd 9247 2cbd
00000020: b6b5 823d d8e1 f23d 2347 9c3d c28e 743d
00000030: 6b6a 70bd f87e d63d 78e7 e8bb c829 a73c
00000040: e945 cb3c cbeb 6abc f22a 333c 9c66 a2bc
00000050: 4d03 f3bc 1436 d3bc 162b 23bd 526e 93bc
00000060: 0fad 00bd 7431 7b3d 82b4 84bd 1048 63bd
00000070: bbca f33b a4ce 433e 98a6 7bbd 871b 253c
00000080: b3d2 573c f962 ddbd 00f7 5dbc 9f6d dd3d
00000090: 4994 743e ddfa 4ebd 6550 d53d 8ae0 1cbd
000000a0: cedc 953d ed6c 163c 8e64 16bd bbaf 983c
000000b0: a538 07bd 9088 1d3e 0d5c 8bbc d729 49bd
000000c0: 1098 3d3d ea20 513c 7a2b 96bd e7bd f03c
000000d0: 3dfc 953d 798c 3e3e 458d 1b3d 1997 25bd
000000e0: 4e16 32bd b5c8 8e3d eb62 c2bb ae51 cbba
000000f0: 06db a3bd 94c5 8abd aaa9 673d 8387 28bd
00000100: 16b7 533e e474 133e af43 8bbc 319c 77bd
00000110: 8a57 42bc 809a 123d 51d4 163d 7195 3d3d
00000120: e9bc 713d 12d3 a43d db1c 313e 62d2 12bd
00000130: 1641 f43c c923 fb3d ae1e 403c e0a3 793b
00000140: ac89 31bd eac1 9a3d 0747 cbbd 2c15 1d3e
00000150: ef6e ae3c 14a0 c63d 7a87 55bd 1bf2 f93c
00000160: 3294 d53d a848 903d 939b 193e e5d3 34bd
00000170: a1a0 ca3d 2682 e6bc 1c18 013e f262 603e
00000180: f6b0 c5bc 7d13 783d cbd2 14bd fcc1 363c
00000190: 481f 61bd 681d 05bc 15a9 863d b02d d03d
000001a0: 3d8a e83d 70ca d8bc 2bda 2a3d 6ed6 923d
000001b0: d77b 7bbb 1205 d8bc 3932 3f3d 7fea f439
000001c0: e32d 383e d0d9 1abd ce6a 2fbc 97cf 0e3d
000001d0: d0cb 263c 48c0 643d b8af f4bc 297d c93d
000001e0: c7fc 473d e684 bcbd 2bf1 26bd 7b72 2dbd
000001f0: badc 69bb b79a a93d beaf ba3d 8c58 09bb
-0.056113448 0.0026837836 -0.08049409 0.015719697 -0.004387848 -0.049175467 -0.035841897 -0.042060442
0.06382315 0.118594825 0.07630756 0.059706457 -0.058695238 0.10473436 -0.0071076714 0.020405665
0.02481361 -0.014338444 0.010935532 -0.019824319 -0.02966466 -0.025782622 -0.03983601 -0.01799694
-0.03141504 0.06132646 -0.06479742 -0.055488646 0.007439939 0.19121796 -0.061438173 0.010077364
0.013172793 -0.10809893 -0.013547659 0.10811924 0.23884691 -0.05053221 0.10415725 -0.038300075
0.07317506 0.009181243 -0.03671699 0.018638482 -0.033013005 0.15384126 -0.017011667 -0.049112167
0.046287596 0.012764195 -0.07332511 0.029387427 0.07323501 0.18608274 0.037976522 -0.0404273
-0.043478303 0.069718756 -0.005932202 -0.0015512013 -0.0800076 -0.06775966 0.05655829 -0.04114486
0.2067531 0.14400059 -0.017000047 -0.06045169 -0.011861691 0.035791874 0.036823574 0.046285097
0.05901805 0.08048071 0.17296164 -0.035845168 0.029816192 0.12262685 0.011726065 0.0038092062
-0.043344185 0.075565174 -0.09925657 0.15340108 0.021293132 0.09698501 -0.052131154 0.030510953
0.10428657 0.07045108 0.15000753 -0.04414739 0.09893919 -0.028138231 0.12606853 0.21912745
-0.024132233 0.06056546 -0.03633384 0.011154648 -0.054961473 -0.008124687 0.065752186 0.10164964
0.11354492 -0.026463717 0.041711967 0.071698055 -0.0038373375 -0.026369605 0.046678755 0.0004671402
0.17986254 -0.03780538 -0.010706617 0.03486594 0.010180429 0.055847436 -0.029868945 0.098383255
0.04882505 -0.09205036 -0.04075734 -0.042345505 -0.0035684542 0.08281463 0.091155514 -0.002095732

bn1.running_mean f4 [128]
00000000: 37e4 3f3d ad3b 513e b322 733e 7db8 a13e
00000010: e9e5 643e 54dd 4b3d 1f3a 553d b7c4 ae3e
00000020: 03a2 613d 6c01 d43c d42b 673c 3eb3 e23b
00000030: 246f 793d f75e 213e af6f 003e 1abe 3c3e
00000040: 8ff2 e53c 189f 423e 2d93 df3b c758 263e
00000050: b5f9 413c 45f5 593e 30b1 943f 13fc 113c
00000060: df1f 273c dae4 bf3d 0980 043e f7e0 f43e
00000070: b548 9f3b ae6d 503e a0fc 463e e5fa 0f3d
00000080: 8783 403c 7400 dd3d 8c55 373e bca8 0c3e
00000090: bc0a 0a3e b4f7 5a3d 05a2 ef3d ff22 4e3d
000000a0: fae6 5e3e e0a3 473e a815 be3d 0b9d 8b3e
000000b0: c0dc 313f 882c 683b 67c5 393e 8299 883e
000000c0: ae71 163d cd75 643d 0898 4a3f 88f5 c63d
000000d0: 5dd4 873e 1504 823e ed7d 433d 1ec3 a63c
000000e0: b2a0 0b3f b117 fe3d 77bd 873e b689 8f3e
000000f0: c62c a73e 7867 a53e 3eff 173c d829 643f
00000100: 0488 a83d fa26 493e c2c5 883e 6786 af3e
00000110: 5aeb 943c ed6c 6e3c 7e9d 513e 1f98 193c
00000120: ac79 a53d 00b8 4d3e ef0a 453c f1e1 0f3c
00000130: 0e41 8a3e e304 0c3e a3df 433c 570f 8d3e
00000140: 9010 093c 1f9e b03c 7a90 a53e d39a 673d
00000150: 2b49 cc3b a793 9f3e 7453 683e 7ba1 483e
00000160: 4bce 163e 8baa 193e 46f2 d23d 2d25 083e
00000170: 026d 8e3c 504f 9d3d 843a 223e 1ea0 013e
00000180: a04a 233e 1099 893e 75a4 c13e 2b01 933e
00000190: dd12 633d 1d9e 1c3e 5d62 923d 80bf 683e
000001a0: ff53 5f3e 4078 b03c b2ed 5f3d 988f 4b3e
000001b0: 4d47 d23d ecb1 bf3d 0b72 903d 37bc 8b3c
000001c0: dd53 c63c d678 8c3e 0ab2 373e b0e0 313d
000001d0: 967e 633e c324 a33c b1dd 603e 77da b53d
000001e0: f647 b23b d32c 2a3e ea63 f33b 3ecd b03c
000001f0: ef9a 903c c1ef 783e 4965 d53d 1d74 753e
0.046848502 0.20432921 0.23743705 0.31586066 0.22353329 0.04977162 0.05205738 0.34134457
0.055086147 0.025879584 0.0141095705 0.00691834 0.060897008 0.15758882 0.12542604 0.18431893
0.028069763 0.19006002 0.0068229646 0.16244803 0.01183932 0.21284969 1.1616573 0.008910197
0.01020047 0.09369822 0.12939467 0.47827885 0.0048609623 0.2035434 0.19432306 0.03515138
0.011750109 0.10791102 0.17903727 0.13736242 0.13480657 0.053458884 0.11700825 0.050326344
0.21767798 0.19496107 0.09281474 0.27268252 0.6947746 0.0035426933 0.1814171 0.26679617
0.036729507 0.055776406 0.7913823 0.097148 0.26529208 0.2539374 0.047727514 0.020356711
0.54542077 0.124068625 0.26511738 0.28034753 0.32651347 0.32305503 0.009277163 0.8912635
0.08229068 0.19643775 0.26713377 0.34282228 0.01817863 0.014552337 0.20470235 0.009374647
0.08079848 0.20089722 0.012026533 0.008781896 0.27002758 0.13673739 0.011955175 0.27550766
0.008365765 0.021559773 0.3233679 0.056544136 0.0062343082 0.31167337 0.22688085 0.1959285
0.14727132 0.15006463 0.10300116 0.13295431 0.017385963 0.07681143 0.15842634 0.12658736
0.15946436 0.2687459 0.37820783 0.2871183 0.05543791 0.1529469 0.071476676 0.22729301
0.21809386 0.021541715 0.054670043 0.19878995 0.10267506 0.09360108 0.07053002 0.017057521
0.024209911 0.2743594 0.1793901 0.04342717 0.22216257 0.01991499 0.21959569 0.088795595
0.0054407073 0.16618662 0.007427682 0.021582242 0.017652003 0.24310209 0.10419709 0.23970075

bn1.running_var f4 [128]
00000000: 326b 2f3c caee fb3d ef00 023e 154e 2f3e
00000010: c7ba cb3d 2d0b be3c 550f af3c 089c f23d
00000020: 93b9 dc3c fec4 af3b 581f 583b f4a7 4d3a
00000030: 2572 893c 0318 f83d 4503 143d 1cc4 c33d
00000040: 7792 ba3b e5c9 0a3e ed66 8e3a b9a5 763d
00000050: ad4a 063b 489e c23d 7c5f 893f d116 ef3a
00000060: e286 123b 677a 7c3d cbc5 4b3d 786e 5c3e
00000070: d76d f739 876e 163e c3f2 923d 56d7 103c
00000080: 6f07 3f3b f612 1c3d 0069 923d bc54 cf3d
00000090: d69b ac3d 89ca 593c bee9 903d c767 963c
000000a0: bff9 3c3e 439f e23d 30c0 043d 49b3 313d
000000b0: 962c 923e 95be 4e3a cd89 e33d 73af b23d
000000c0: 1915 833c ad48 8b3c 8f42 f73e dff7 443d
000000d0: 2ef0 ea3d 7501 473e b3da 473c 02a9 883b
000000e0: 99b2 633e ec2f c63d 6bbf bc3d 5084 c63d
000000f0: 911c bf3d 4484 f23d 097b d23a 9544 093f
00000100: 3e62 3c3d b837 1f3e d137 a03d eeda 553e
00000110: b3cc 653b 3459 8b3b 678f f33d a9b9 b23a
00000120: 8465 083d f4e7 8a3d 0843 8b3b 6444 de3a
00000130: 4d03 493d c15d b83d 88b3 e73a 6d14 253e
00000140: b63c 9e3a c07e ce3b a4ac 283e 4852 863c
00000150: d537 333a 6cfe ec3d fa7f ae3d e84f 9b3d
00000160: bf04 ce3d f85e 003e 7987 513d c0a8 8f3d
00000170: 8154 293b 5c14 b73c eac3 bb3d e181 a93d
00000180: e1a3 c93d b5b1 363e 8b29 333e 8a23 243e
00000190: ce1f e63c 20fb b23d 0b13 993c 9bb7 3b3e
000001a0: 99df b93d eb03 9c3b efcd 033d ade7 143e
000001b0: 10ae 633d 2f25 293d 47d7 b43c b884 683b
000001c0: ba1d 193c 8efc 303e b199 e93d ff4f 503c
000001d0: 2f8a e23d 77ad 7c3b 0c9b 4d3d 07db 153d
000001e0: 932f dc3a aca3 843d 8fe2 853a 2b18 8a3b
000001f0: e2d8 a33b 2c75 d33d 3c96 3b3d ceb2 183e
0.01070671 0.12301405 0.12695669 0.1711963 0.09947734 0.023198688 0.021369616 0.11846167
0.026943957 0.0053640595 0.0032977667 0.00078451564 0.016778061 0.12113955 0.03613593 0.09558889
0.0056937295 0.13553579 0.0010864415 0.06021664 0.0020491288 0.09502846 1.0732265 0.0018241053
0.0022358228 0.06164017 0.049749177 0.21526515 0.00047193348 0.146906 0.071752094 0.008840403
0.0029148718 0.03810402 0.071489334 0.10123584 0.08428161 0.013292917 0.07075833 0.018360032
0.18454646 0.11065533 0.032409847 0.04338387 0.2854964 0.00078866753 0.11110268 0.087248705
0.016001271 0.017002428 0.48292968 0.04808795 0.11471592 0.1943415 0.012198138 0.004170538
0.22236098 0.09677109 0.092161976 0.09693205 0.093316205 0.11841634 0.0016058396 0.5362027
0.04599213 0.15548599 0.07823146 0.20884296 0.0035064637 0.004252577 0.11892586 0.0013635653
0.033299938 0.06782523 0.004249934 0.0016957638 0.049075413 0.09002257 0.0017677406 0.16121073
0.0012072537 0.006301731 0.16472107 0.016396657 0.0006836628 0.115719646 0.08520503 0.075836
0.10059499 0.12536228 0.051154587 0.070146084 0.0025837722 0.022348575 0.09168227 0.082767256
0.098457105 0.17841227 0.17496316 0.16029182 0.028091338 0.087393045 0.018685838 0.18331759
0.09075851 0.0047612092 0.032178815 0.14541502 0.05558592 0.041295227 0.022075308 0.0035479497
0.009345466 0.17283842 0.114062674 0.012714385 0.11061513 0.0038555542 0.050196692 0.036585834
0.0016798846 0.064765304 0.0010214614 0.004214307 0.0050002197 0.10325083 0.04579757 0.14911959

tns1.weight f4 [8, 128, 1, 1]
00000000: 375d 94bd d0ba 6e3b 7b0a 273c 86cf 8c3c
00000010: ffb7 863d 7d68 1a3e 7b3d f5bd 50f2 d9bb
00000020: 27c5 793c 4855 803c 08b8 65bd 2f9e 13bd
00000030: ae24 00bc b62a 863d b1a2 0b3b 1c7b 583d
00000040: 7895 66bd a611 8d3d 701f dcbd e3ba b7bd
00000050: 551b 4d3c b9dd 1bbe 616e 85bc cbb8 753d
00000060: 44a0 d3bc f6f5 df3d 7c6f 843c 574e 613c
00000070: b948 bbbb 8dba c93d 93ae ae3c 46ed 0fbd
00000080: 5500 81bd c532 7bbd f413 00bc 183c 043e
00000090: 66c2 b43d 61da 47bd 5601 afbc 3a7a cf3b
000000a0: 8838 4c3d 80b4 de3d 6584 7abd 18e7 473b
000000b0: ddea e83c d183 093e 2c6c 493d c3a4 31bd
000000c0: b46b 493e 5954 123d ddea a73c 2dfe c5bc
000000d0: 269e 453d 2512 ce3d cf3c 053d 1fa9 07bd
000000e0: 1868 243c 07f6 e3bb a6fa 3ebd a867 0a3d
000000f0: e0c6 ba3c 5c8f 7f3b 65e0 fabc 7874 22bd
00000100: 0eb6 813d f154 f4b8 b583 0ebd 72fa 02bc
00000110: b213 07bb 05fb 0c3d 5788 24bd 4a07 98bd
00000120: 27fa 8fbd 0f41 c73b 5eb5 2f3e 1af4 36bd
00000130: 460b 3f3d 3119 603d 34be d7bd 2f55 623d
00000140: 2705 4cbd 2744 da3d 125d 99bc 33ad 3b3e
00000150: e4e4 e0bd 7f23 2fbc 1230 863d 8644 b83d
00000160: a41b 283e 7d60 643e 2199 633e 745f e5bb
00000170: 7abe 853d be44 f53d 4e4d a83d 0aaf 433e
00000180: 31fb b13d e13d 993d fbba 87bc 6974 03bd
00000190: a369 bf3d 1a4e ea3d 32ef 193e 68b9 b63d
000001a0: bfeb 353d 0fb5 e6bd a24b 4ebe f307 403d
000001b0: e843 16bd 8295 423d 2689 033e fc93 943d
000001c0: 6f41 523e 5601 5b3d c07d 233d 3e5b 123e
000001d0: bd9b 5fbd 3b42 d93c 8645 57bd 16fb 84bd
000001e0: 5779 f5bb 9fff c2bd f780 a3bd 362b 26bd
000001f0: 0780 8e3d 4851 1b3b 6f68 5c3e 5fe9 d23c
00000200: 7e94 d0bd 3598 973b 3867 813d eeee 2fbc
00000210: 3f6c 91bd 945f 083e d530 03bd a5fc 59bd
00000220: 9f8d 8fbd 14c2 89bd 6f69 f5bd c272 c03c
00000230: 66e9 aabd 1880 1cbe ea7b c83c 1881 373d
00000240: 30d4 c43d b445 0c3d 21d1 37be c49a 01be
00000250: ebc2 fabc 3352 94bd 8241 8bbc 295f 86bc
00000260: 22e3 7abd 6bde 083b ea52 d73d 77ab 753d
00000270: 10d7 12bd 9036 b3bd b5b1 59bd dea6 36bd
00000280: 3a4a f43c 1b31 c3bc 15dd b3bd b997 633c
00000290: d605 29be 0a7c b2bd 6531 25be 39e0 81bd
000002a0: 7021 23bc a30d dcbc ba34 e33c 3cc3 003e
000002b0: 16b0 233d 9f36 0ebe ed91 ecbd c442 9b3d
000002c0: c236 993d 2219 d4bb 8f7c b0bb 767b 46bd
000002d0: ea28 21bd da5b f73b f84e c7bc 9196 b2bc
000002e0: 69e1 0b3d 87bf d0bd 844f 893d 2138 893d
000002f0: 184b 72bc 621e 48bd 51fa 5e3c 3e0b 36bd
00000300: e5bb 2cbe dff8 6cbe ff05 a73c 410a a13c
00000310: 0661 aabb dc58 a7bd 2048 9f3d 1a67 65be
00000320: 6801 463c 64ff 1fbe b442 bcbd 0f2b 17bd
00000330: 5435 183d e423 debd 6924 17be 24fd cbbd
00000340: b962 b5bc fe6c 143e 2a13 433d 5f99 2e3d
00000350: b368 3dbd 9cce 533d 285f a73d 1b33 30bd
00000360: 5c9d 543d cfdb a43d b73e 053d 9bd9 b2bd
00000370: d933 bbbd 43a4 f53d 2202 223b 3e6e 60bd
00000380: b5d7 463d d987 353d 10ac 48bc 1ebf 7cbd
00000390: 4019 2d3d 7836 223e 9b12 223e 8719 4dbe
000003a0: 3b97 b4bd f693 25bd c80c 0c3e 52b4 22bc
000003b0: 17c2 48bd dcbe 30bd 4834 483d 3055 85bc
000003c0: 1384 d8bd c6aa e5ba cb94 3fbd ab2d 9fbc
000003d0: 5da3 643d d267 0cbe 5b09 6f3c 4acf fbbd
000003e0: 6d5e 023d 505e 4dbd 1b67 c5bd 53b6 08be
000003f0: c60e 1e3d 968a 4dbe 9746 ffbd 7d86 b9bd
-0.07244342 0.0036427267 0.01019537 0.017188799 0.06578063 0.15078922 -0.11974617 -0.0066512004
0.015244759 0.015665665 -0.05608371 -0.036039528 -0.007821245 0.06551115 0.0021306688 0.05285178
-0.05629489 0.06888132 -0.10748184 -0.08971193 0.0125187235 -0.15221299 -0.016287984 0.059990685
-0.025833257 0.10935585 0.016166441 0.013751588 -0.0057154563 0.09850035 0.021323478 -0.03513839
-0.062988915 -0.061327714 -0.007817257 0.12913549 0.08826141 -0.048792247 -0.021362942 0.006331709
0.0498586 0.108742714 -0.061161418 0.0030502733 0.028432304 0.1342919 0.049175426 -0.04337002
0.19669992 0.03572497 0.020497734 -0.024169052 0.048246525 0.100620545 0.032528695 -0.03312027
0.0100345835 -0.006956819 -0.046625756 0.03379026 0.02279991 0.003899536 -0.030624578 -0.039661855
0.06333552 -0.00011650648 -0.034793574 -0.007994281 -0.0020611105 0.03441908 -0.040169086 -0.07423265
-0.07030135 0.0060807536 0.1715903 -0.044666387 0.04664161 0.054711524 -0.10534325 0.05525702
-0.0498096 0.1065753 -0.018721137 0.18327789 -0.109811574 -0.010689615 0.065521374 0.08997445
0.16416794 0.22302432 0.22226383 -0.0069999043 0.06530471 0.11976002 0.0821787 0.19109741
0.08690489 0.074825056 -0.016568651 -0.03209344 0.093463205 0.11440678 0.15032652 0.08922082
0.044414278 -0.11265003 -0.20146039 0.04688258 -0.036685854 0.047505863 0.12845287 0.07254788
0.20532773 0.05346807 0.039914846 0.14292619 -0.054591883 0.026520839 -0.052556537 -0.06493203
-0.0074912715 -0.09521412 -0.079835825 -0.040568553 0.06958013 0.002369957 0.21524213 0.025746046
-0.10184573 0.004626299 0.063185155 -0.010738118 -0.071007244 0.1331771 -0.03202899 -0.053219456
-0.07009434 -0.067264706 -0.119830005 0.02349222 -0.083452985 -0.15283239 0.02447315 0.044800848
0.09610784 0.03424616 -0.1795087 -0.12656695 -0.030610522 -0.07242241 -0.01699901 -0.016402798
-0.061251767 0.0020884525 0.105138615 0.059977975 -0.03584963 -0.08750641 -0.05314799 -0.04459273
0.02982055 -0.023827126 -0.087824024 0.013891154 -0.16506132 -0.08715065 -0.16132124 -0.06341595
-0.009956703 -0.026861971 0.027735103 0.12574476 0.03996285 -0.13888024 -0.11551271 0.07581094
0.07481147 -0.0064727226 -0.0053859423 -0.048457585 -0.03934566 0.0075487914 -0.024329647 -0.021800311
0.034150515 -0.10192781 0.067046195 0.06700159 -0.014788412 -0.0488571 0.013609485 -0.044444315
-0.16868551 -0.23141812 0.020388601 0.01965821 -0.0051995544 -0.081712455 0.077774286 -0.22402611
0.012085296 -0.15624768 -0.0919241 -0.0369063 0.037160233 -0.10846689 -0.14759983 -0.09960392
-0.022141801 0.14494702 0.0476257 0.042626735 -0.046242427 0.05171071 0.081724465 -0.043017488
0.051907882 0.08049738 0.032530513 -0.08732911 -0.091407485 0.11994221 0.002472051 -0.054792635
0.048545558 0.044319008 -0.012248054 -0.0617057 0.04226041 0.1584109 0.1582741 -0.20029269
-0.088179074 -0.04042431 0.1367675 -0.009930687 -0.049013223 -0.043150768 0.048877984 -0.016275972
-0.10572066 -0.0017522208 -0.04677276 -0.019430956 0.055819858 -0.1371148 0.014589633 -0.122953966
0.031828333 -0.05013877 -0.096388064 -0.13350801 0.038588308 -0.20072398 -0.12464636 -0.09058855

tns1.bias f4 [8]
00000000: c6d3 083f 09d6 fabd 30c7 5dbd b632 eb3e
00000010: d9b0 8abd 3944 fe3d 92bf 17bf 03ef 39be
0.5344814 -0.12247855 -0.054145038 0.45937127 -0.06772012 0.12415356 -0.5927669 -0.18157582

conv2.weight f4 [16, 8, 3, 3]
00000000: 1e78 21bc 636b d33d c764 56be 95f6 7b3c
00000010: 17a6 963d 617a 24be 3c29 8dbd 3b61 043b
00000020: 66b2 fcbd 3e98 8d3c 1243 1bbc a2e1 ee3d
00000030: aa7e 013e 546f e83d e9a2 8d3c 129b 28bd
00000040: 3329 dabc 1a8a 36bc 782f 9fbe 39d6 3f3d
00000050: ecef 90bb 7074 85bc 26a0 54bd ec17 973d
00000060: 2ed3 6abd 25c0 99bc adc9 693e 81c9 9abd
00000070: 3524 ce3d ab73 febd 64a5 06bd f4df c43d
00000080: 221d a8be fd8b 1bbe a950 593d 4981 6ebe
00000090: 2a41 653d ac15 873d d2f8 d7bd 0893 50be
000000a0: 2f51 f13c 783f 7c3d 5757 98bd 741f 943d
000000b0: 5279 fcbd a8d0 863e a011 19be e26a f0bd
000000c0: a9f2 e2bd 090a fbbd 0e77 813c 3176 f93d
000000d0: d8d6 92bd 32e9 a93d ccf4 de3d 366e 72bd
000000e0: 6934 f6bd 0276 933c 3cab 6e3d 4545 553a
000000f0: 1dab 963d a8ff 753d 15f1 bfbd 3132 45be
00000100: de0e c23d 10e8 873c 9c5e 2abe a5de 9abb
00000110: d809 61bd d6dc 08bb bdf4 5f3e efc3 683d
00000120: 10d9 22bd 11e9 fe3d 9abc f3bd 7eee 51bd
00000130: f167 12be 70be 9abd d3bb 17be 9ff2 313d
00000140: 0424 0bbd db35 8cbc 9ecb cb3d 19b3 6c3e
00000150: 6c26 8abd 3e7a 09be 9d93 55bd 04b6 d4bc
00000160: 32d1 2d3d 7261 8bbc 4fe8 1ebe 7c11 5bbc
00000170: 5643 943d 2434 5f3d 108d f0bd 9c9c 1dbd
00000180: 1ffb da3d 55f9 e73c 981a 313e 3be0 72bd
00000190: 0bb0 69bd 360c eabd f933 f83d 67dc 70ba
000001a0: cbf4 e63d 06e8 10bc 93ed 233c 0dbc b73c
000001b0: b74f 1dbc 1021 67be 829d adbc 7ed8 8739
000001c0: c50b 253c c329 98bd 45c8 4dbe 92ae bebc
000001d0: 0fcc 06bd 83c4 533e 6257 353e 24e9 433d
000001e0: 90e0 033e 81c5 afbd a24d 41be b650 85bd
000001f0: bd78 82be 8cf0 2abe a72c cdbc 281f 433e
00000200: ebd6 2d3d c362 433e 9dd6 bfbd 0035 253c
00000210: d369 57bb c5a8 bbbd bf27 ca3d a577 9d3d
00000220: 7e3d aebd b2a4 c5bc d76d 6e3d 634e db3d
00000230: 1ba8 3cbb c22b 223d ab8e c9ba d9cb 273e
00000240: f61b a4bd ddca 3f3c 7b3c cfbc d07b 5b3c
00000250: ecc4 66bd 9d10 12bd d2f3 c83d 5dbd 033c
00000260: 33e0 91bd 0576 2abe b084 3a3d 7b70 633e
00000270: ae6d 47bc 3d6d 933d a92a f6bd 640c 863d
00000280: 2b65 313d 666a a53d 9887 a53d 3c98 6abe
00000290: aeee 893c 5d23 9c3c d527 a0bd eb95 8b3d
000002a0: 0412 00bd c3b2 693c 1985 be3d 0770 3ebe
000002b0: b8c9 db3d f841 303e 96c5 a5be 20b6 ecbb
000002c0: fe9c 9b3d 42a8 15be 3e9b 27bd 0889 ff3c
000002d0: 4a82 6ebd 2445 8a3d fb8e b4be 72b8 0b3e
000002e0: 7df8 ec3d 7e93 ae3d 0975 853d 01f9 a2bd
000002f0: e14b 02be f956 b83d ad3b 4b3e 6164 0f3e
00000300: bbb3 473e f95e 0e3e eadb df3d ab21 d6bd
00000310: 0adf 7abe c82c dcbc bb6d 75bd 7c42 893d
00000320: 880f 1d3e 1807 743c cc55 913c d71a 23be
00000330: c331 b43d 46bc 66bd ce9c 9c3c 67ba 163e
00000340: d2ca 66bc 17a8 163e 8695 6cbd d5ca fb3d
00000350: 9b8e 0dbd 9e6e abbc b11c 723d 51c7 0c3e
00000360: 8ae4 ce3d 1a1a 883c 06ed 4cbc 4f18 10be
00000370: b02c 15be 30c3 0e3e 4ec6 3abd d7d7 ae3d
00000380: 0fb6 823d 61b5 b4bd 51e8 8e3c b029 cf3d
00000390: eefb 693e 2421 ba3d d44d a9bd 4676 72be
000003a0: 6ff2 98b9 7d0d 0d3e 9bec babc 16ad b8ba
000003b0: d341 57be 3690 1b3e 94c4 483e b1b6 4ebc
000003c0: fa42 ac3d a3df 88be b945 1ebe 55e7 ab3c
000003d0: 897f a73d 4686 643e 9ee6 9d3d 4b60 173e
000003e0: 1b70 f03d 78af 2dbe 49a8 3ebd ff1a 093e
000003f0: 9c23 8f3d ec7a 1fbd e267 3dbd 26f8 ad3d
-0.009855298 0.10323217 -0.20936881 0.015378614 0.07355898 -0.16062309 -0.068926305 0.0020199555
-0.12338714 0.017284509 -0.00947644 0.1166413 0.12645975 0.11349359 0.017289596 -0.04116351
-0.026630973 -0.011141324 -0.31090903 0.046835158 -0.004423132 -0.016290873 -0.051910542 0.073776096
-0.057330303 -0.01876838 0.2283084 -0.07557965 0.100655 -0.12424406 -0.032872573 0.09613028
-0.32834727 -0.1519012 0.05305544 -0.23291506 0.05597035 0.065959305 -0.105455056 -0.20368588
0.029457657 0.061583966 -0.07438534 0.07232562 -0.123278275 0.26331067 -0.1494813 -0.11739136
-0.1108144 -0.122577734 0.01580384 0.12180746 -0.071698844 0.082964316 0.10886535 -0.059187137
-0.12021715 0.018000606 0.05826877 0.0008135627 0.07356856 0.060058266 -0.093721546 -0.19257428
0.09475492 0.016590148 -0.16637653 -0.0047262483 -0.05494103 -0.0020883582 0.21870704 0.05682748
-0.03975779 0.12446798 -0.11901207 -0.051252834 -0.14297463 -0.07555854 -0.14817743 0.043444272
-0.033969894 -0.017115524 0.09950946 0.23115195 -0.0674561 -0.13425538 -0.052142728 -0.025965698
0.042435832 -0.017014239 -0.15518306 -0.013370868 0.07239406 0.054493085 -0.117456555 -0.038479432
0.10692429 0.028317133 0.17295301 -0.059295874 -0.057052653 -0.1142811 0.12119288 -0.0009188116
0.11277159 -0.008844381 0.010005373 0.022428537 -0.009601525 -0.22571206 -0.02119327 0.00025910506
0.010073607 -0.074298404 -0.20095928 -0.023276601 -0.03290945 0.20680432 0.17709115 0.047829762
0.12878633 -0.08582593 -0.18877271 -0.06509535 -0.2548274 -0.16693324 -0.025045706 0.19054854
0.04244129 0.19080643 -0.09367106 0.010083437 -0.0032869473 -0.091630496 0.09870862 0.07688836
-0.085078225 -0.024126384 0.05821022 0.107083105 -0.0028786722 0.039592512 -0.0015377601 0.16386355
-0.080131456 0.011706081 -0.025297394 0.013396218 -0.056340143 -0.035660375 0.0981213 0.008040753
-0.07122841 -0.16646583 0.045536697 0.22210877 -0.012172146 0.0719857 -0.120198555 0.06545332
0.043309372 0.080769345 0.08082503 -0.22909635 0.016837444 0.019059831 -0.07820097 0.06815704
-0.03126718 0.0142638115 0.0930273 -0.18597423 0.10731834 0.17212665 -0.3237731 -0.0072238594
0.07598303 -0.14614967 -0.040919535 0.031193271 -0.058229722 0.06751469 -0.35265335 0.13644579
0.11570833 0.08524226 0.06516463 -0.0795765 -0.12724258 0.09000964 0.19846983 0.14003135
0.19502155 0.13903417 0.10930617 -0.104556404 -0.24499145 -0.026876822 -0.0599191 0.06702134
0.15337956 0.014894269 0.017741106 -0.15928207 0.08798554 -0.056331895 0.019117739 0.14719544
-0.014086442 0.14712559 -0.057759784 0.122945465 -0.034559827 -0.02092677 0.059109394 0.13747908
0.10102184 0.016614009 -0.012507683 -0.14071773 -0.14567828 0.13941646 -0.045599274 0.08537262
0.06382381 -0.08823658 0.017444761 0.10115373 0.2285001 0.09088352 -0.08266798 -0.2367793
-0.00029172326 0.13774677 -0.0228179 -0.001408967 -0.21021204 0.15191731 0.19606239 -0.012616799
0.08411212 -0.2673312 -0.15456285 0.020984331 0.08178622 0.22316846 0.07710002 0.14782827
0.117401324 -0.16961467 -0.046547208 0.13389204 0.06989214 -0.038935587 -0.04624165 0.08494596

conv2.bias f4 [16]
00000000: 0ff3 a0be 0c24 d2bd 60b6 793d 86d3 c43d
00000010: 020c 7dbe a749 19be 93cb 29be a4cc 06bf
00000020: 42e4 c3bd 4f7b 97be e40d 0dbe de0a 1ebe
00000030: 0da0 0c3d 2f5a 5cbe 092e 4fbd 8c0e 0c3e
-0.3143544 -0.10260782 0.060964942 0.096106574 -0.24711612 -0.14969502 -0.16581564 -0.52656007
-0.09565021 -0.29586264 -0.1377483 -0.15433833 0.034332324 -0.21518777 -0.050581012 0.13677424

bn2.weight f4 [16]
00000000: 6dee 6d3f 1107 7e3f cb09 6d3f e067 893f
00000010: acd5 813f 7360 823f c4d7 823f adeb 723f
00000020: 2682 733f fe5d 443f 0ad9 533f 1d84 8a3f
00000030: 2825 683f 22aa 5c3f ff65 6c3f 6332 7e3f
0.92941934 0.9922953 0.9259307 1.0734825 1.0143332 1.0185684 1.0222096 0.9489086
0.95120466 0.7670592 0.8275305 1.0821568 0.90681696 0.861971 0.92343134 0.99295634

bn2.bias f4 [16]
00000000: 3678 573d 267a 093e 74c9 193d 3797 643e
00000010: fc94 963e b8fd 4b3e db3a 1f3e 83cd 60be
00000020: 2444 a33e 8d86 1d3e 9640 a03d 5d32 8e3e
00000030: 763c 2bbd 5d7a 4a3d 0100 013e c8d0 453e
0.052604876 0.13425502 0.037545636 0.22323309 0.2941054 0.19921005 0.15549795 -0.21953396
0.31887925 0.15383358 0.07824819 0.277728 -0.041805707 0.0494331 0.12597658 0.19317925

bn2.running_mean f4 [16]
00000000: 38ef 783e 97b4 0a3f 2964 263f d12a 883f
00000010: fcf6 e63e 74c5 283f ca22 5c3f 2259 153e
00000020: a619 373f 0f13 893e 7f3d e63e 8e3c 1d3f
00000030: 72f5 003f cfcb 353e f0ca e23e 420c 4c3f
0.24310005 0.5418181 0.6499658 1.0638067 0.4511031 0.6592629 0.85990584 0.14584783
0.7152351 0.26772353 0.44968793 0.61420524 0.5037452 0.17753528 0.44295454 0.79706204

bn2.running_var f4 [16]
00000000: 67ca 0e3f fa1e a73f 26ef 893f 1882 3340
00000010: 31f3 833f 08e8 d83f 8494 4640 8fd5 a63e
00000020: e64c 643f 5d82 1e3f 09f7 2a3f a3c0 c53f
00000030: 6511 453f 2f16 b23e 5b67 923f a577 ab3f
0.5577759 1.3056328 1.0776107 2.8048153 1.0308591 1.694581 3.1028147 0.32584807
0.8917984 0.6191767 0.66783196 1.5449413 0.76979667 0.3478255 1.1437792 1.3395888

conv3.weight f4 [16, 16, 3, 3]
00000000: 2642 7bbd 40ae 14bc 7826 343d 361b 563c
00000010: be5e 603d 567f 893d 07ca 923d e84f a83d
00000020: 4e59 a43d 762f 43bc 2b05 94bc 9b2f 77bd
00000030: f67b 95bc 903e c23c e65b 303d c052 c93b
00000040: de23 513d 3ef3 963d 5bbb 603d 1b70 933c
00000050: abee 78bb 1371 61bd ebac 463d 4645 13bd
00000060: 00fb e4ba 6378 843d a467 a93d 2096 16bc
00000070: 3354 723d 43fa 893d 1b35 57bd 965a 43bc
00000080: 8b9f e93c 1e4a 5d3d eee2 7dbd fb1a fcbc
00000090: f6bf 7a3d 0ff5 833d d080 12bd 180b 4b3d
000000a0: ab40 ed3b 2e7e 17bd 88a7 1b3d 2448 843d
000000b0: 9346 79bd 46e7 63bd 187a 803d 2b71 873b
000000c0: 63cf 313d bc10 8abd 0483 86bd 33b2 733d
000000d0: 56b6 fe3a eb82 ac3b 6b17 0abd 3833 4b3d
000000e0: 200b a33c 9a68 a5bd 806c 2b3d 8bdb 253c
000000f0: 6bd5 06bd 681d 763d 2e61 013d 46a9 0d3d
00000100: 57ff 80bd fed3 3b3d a318 91bd 880c 0abd
00000110: 4073 d03c 380a 33bd 367a 473d 101a 3f3d
00000120: 604a 753c 58ca 763d 0026 5bbb 16c0 d8bc
00000130: 6e0f 653d ab12 13b9 f08f 49bd c8d0 0cbd
00000140: 4668 d33c 1680 fabb 56b2 7dbc 8617 f73c
00000150: 63d0 a0bd 26fe f8bc be3b a3bd 00c8 7f3b
00000160: 7623 c63c 0bdd 693c 6b11 0c3c c04e ba3c
00000170: b652 753c 6636 9f3c 2bba f8bc de1f 943d
00000180: 86c0 dcbc 484d 253d c7f5 a23d c03f 3c3c
00000190: 2eae 3dbd fb32 a6bc 783e 9abd cba5 6bbd
000001a0: eb86 0c3c d4bc 8f3d c01c 68bc 80b9 95bb
000001b0: aba0 c83b 4b46 33bd 030f 25bd f6ac 80bd
000001c0: 96e7 a2bb 9b19 c43c f0ab 733d d303 a8bd
000001d0: 68c0 2d3d e779 8dbd 5ecf 243d ae1b 6dbd
000001e0: 9bbc 5abd 5618 8dbd f476 903d b2b5 8dbd
000001f0: ebad 683d 23ec 923d 8bfd 5dbd 989f 773d
00000200: bca5 9c3d 2e5f a4bd ee4e 5dbd 4606 813d
00000210: c0b1 4fbd a855 603d ce79 45bd 5616 53bc
00000220: 8e13 5bbd 0030 4f3c 23ea 4fbd e617 3fbd
00000230: 56f8 7b3c 2b64 3ebb 00a2 afbb 8b60 26bd
00000240: cefa 453d 078b 9c3d 638f 4b3d 6a02 85bd
00000250: f227 8cbd e053 59bd eb64 8d3b 4082 b3bb
00000260: e0e5 403c 86ca de3c 43ee 4d3d 535c 293d
00000270: 6648 af3c 7b17 d7bc 0030 f6bb e068 ddbc
00000280: fbd9 76bd 405f 26bc 8ecf 9ebd 7a02 803d
00000290: 08dd 703d 4015 a33b fbfa 62bd 4b2b ccbc
000002a0: 1656 a63c 967d 883d 68fd 8d3d 80c3 d43c
000002b0: 78b8 193d b60b adbc 036e 65bd 002c 2dbd
000002c0: 8b21 f3bc 164a 333c ab06 863a 1be1 613d
000002d0: 70ac 953d c3e7 70bd ceb7 0f3d 9b7d f3bc
000002e0: 3eab 253d 5cf4 a0bd d639 d1bc b85d 3f3d
000002f0: a01a 95bc e0d2 2bbd d80f 7b3d a6fb 56bd
00000300: 9e84 65bd 1647 a0bb 6e8a 313d 103b 5fbd
00000310: c83f 663d cb35 a5bd 3cb5 833d 239b 7dbd
00000320: ab29 933b 0b66 65bd 1a8d 8fbd c3dc a73d
00000330: 28e9 0d3d fb5a 8fbd 88ce 95bd abc5 91bb
00000340: ce8d 5b3d 9bd0 3d3d d668 703b f620 313c
00000350: fe83 7cbd c021 503d 8090 12bc 446f 89bd
00000360: 332b 7bbd 60a1 8cbc 78ff 56bd 600b dcbc
00000370: ea86 a63d 2bca 6a3b 1342 39bd 560e 853d
00000380: 826a 9e3d a0ab 043c 2bed 08bb 60d5 213c
00000390: f697 89bc ab79 7d3c 10bc d43c 52d1 803d
000003a0: dea4 203d 4022 863c ab9f cdbb 6055 823d
000003b0: 237a 0a3d eb5c d83c 26c8 693d f0f2 8c3c
000003c0: 4bc3 bebc d657 ae3c 9ba2 29bd b63b 513d
000003d0: 06b6 d9bc e0a7 9b3c 9057 bf3c a090 7fbd
000003e0: 2a7e 8ebd 3399 6a3d 387a a8bd 40f3 eebc
000003f0: 53e9 423d 0bad a93c d084 a33d 4a6e a7bd
-0.06134238 -0.009074748 0.043982 0.013068011 0.054777853 0.067137405 0.0716744 0.08218366
0.08024846 -0.011913171 -0.01806887 -0.060348134 -0.018247586 0.023711473 0.04305639 0.006143898
0.051059596 0.073706135 0.054866176 0.017997792 -0.0037984054 -0.055039477 0.04850475 -0.035954736
-0.0017469823 0.064682744 0.08271721 -0.009191066 0.05916233 0.06737187 -0.05254088 -0.011923453
0.028518459 0.05402576 -0.061983995 -0.030774584 0.061218224 0.064432256 -0.035767376 0.049571127
0.007240375 -0.03698557 0.038001567 0.06459072 -0.06085832 -0.05564048 0.062732875 0.0041333637
0.04341067 -0.06741473 -0.06567958 0.059496116 0.0019433002 0.00526463 -0.03371374 0.049609393
0.019902766 -0.08076592 0.04185152 0.010123144 -0.032918375 0.060086638 0.03158682 0.03458526
-0.06298702 0.04585647 -0.07084777 -0.033703357 0.02544558 -0.043710917 0.048700534 0.046655715
0.014971346 0.060251564 -0.0033439398 -0.026458781 0.055922918 -0.00014025967 -0.049209535 -0.034378797
0.025806557 -0.0076446636 -0.015484413 0.030162584 -0.078522466 -0.030394625 -0.07970379 0.0039029121
0.024186831 0.014273892 0.008549075 0.022742629 0.014973333 0.019435119 -0.03036221 0.07232641
-0.026947271 0.040356904 0.079570346 0.011489809 -0.04630869 -0.020287981 -0.07531446 -0.05753116
0.008577089 0.07018438 -0.014167011 -0.0045692325 0.0061226687 -0.04376821 -0.04029752 -0.0628299
-0.004971455 0.02393799 0.059490144 -0.082038544 0.04241982 -0.06908017 0.040236823 -0.057887726
-0.053402524 -0.06889407 0.070539385 -0.06919421 0.056806486 0.07173946 -0.054196876 0.060454935
0.07648799 -0.080259666 -0.05403035 0.06300025 -0.050706625 0.05476919 -0.048211865 -0.012883743
-0.053485446 0.012645721 -0.0507604 -0.04665365 0.015379032 -0.0029051404 -0.005359888 -0.040619414
0.04833489 0.07643705 0.04969729 -0.06494601 -0.068435565 -0.053058505 0.004315009 -0.0054781735
0.0117735565 0.02719618 0.050276052 0.041347813 0.021396827 -0.026256314 -0.0075130463 -0.027027547
-0.060266476 -0.010154545 -0.07754432 0.06250472 0.05880454 0.0049768984 -0.055415135 -0.024922987
0.02030472 0.066645786 0.06933099 0.025972128 0.03752944 -0.021123748 -0.05601312 -0.04227829
-0.02967908 0.010942956 0.0010225376 0.055146318 0.073082805 -0.058814775 0.0350874 -0.02972298
0.040446512 -0.07859108 -0.025540274 0.046720237 -0.018201172 -0.041949153 0.061294407 -0.052486084
-0.056034677 -0.0048912866 0.043344907 -0.054499686 0.05621317 -0.08066901 0.06431052 -0.061915528
0.004491051 -0.05600552 -0.07009335 0.08196404 0.034646183 -0.06999775 -0.07314783 -0.0044486127
0.053602032 0.04634152 0.003668358 0.010811081 -0.061649315 0.050813437 -0.008945584 -0.06710675
-0.061320495 -0.017166793 -0.052489728 -0.026860893 0.081312016 0.0035826068 -0.04522903 0.06496875
0.077351585 0.008097559 -0.0020893316 0.009877533 -0.016796093 0.015470902 0.025968581 0.06289925
0.03921973 0.016373754 -0.0062751374 0.0636394 0.033807885 0.026411494 0.057075642 0.017205685
-0.023286482 0.021282118 -0.04141484 0.051082335 -0.026576053 0.019000947 0.023357183 -0.062393785
-0.06957658 0.05727501 -0.082264364 -0.029168725 0.047585797 0.020712396 0.07984316 -0.08175333

conv3.bias f4 [16]
00000000: f8b0 a5bd 06e6 cebc 6ba4 a9bd 6301 8f3d
00000010: 88b7 a6bd 262d 3a3d 267b 6e3d 407f 1bbd
00000020: 007c 623c 2b74 0dbc e389 0cbd 9bf2 92bc
00000030: d6cd 09bc a81f 7fbd ead4 a0bd 62f4 93bd
-0.08090395 -0.025256168 -0.08283313 0.06982686 -0.081404746 0.045453213 0.058222912 -0.037963152
0.013823509 -0.008633654 -0.034311187 -0.017937949 -0.0084108915 -0.06228605 -0.0785311 -0.07224347

bn3.weight f4 [16]
00000000: 0000 803f 0000 803f 0000 803f 0000 803f
00000010: 0000 803f 0000 803f 0000 803f 0000 803f
00000020: 0000 803f 0000 803f 0000 803f 0000 803f
00000030: 0000 803f 0000 803f 0000 803f 0000 803f
1.0 1.0 1.0 1.0 1.0 1.0 1.0 1.0
1.0 1.0 1.0 1.0 1.0 1.0 1.0 1.0

bn3.bias f4 [16]
00000000: 0000 0000 0000 0000 0000 0000 0000 0000
00000010: 0000 0000 0000 0000 0000 0000 0000 0000
00000020: 0000 0000 0000 0000 0000 0000 0000 0000
00000030: 0000 0000 0000 0000 0000 0000 0000 0000
0.0 0.0 0.0 0.0 0.0 0.0 0.0 0.0
0.0 0.0 0.0 0.0 0.0 0.0 0.0 0.0

bn3.running_mean f4 [16]
00000000: 0000 0000 0000 0000 0000 0000 0000 0000
00000010: 0000 0000 0000 0000 0000 0000 0000 0000
00000020: 0000 0000 0000 0000 0000 0000 0000 0000
00000030: 0000 0000 0000 0000 0000 0000 0000 0000
0.0 0.0 0.0 0.0 0.0 0.0 0.0 0.0
0.0 0.0 0.0 0.0 0.0 0.0 0.0 0.0

bn3.running_var f4 [16]
00000000: 0000 803f 0000 803f 0000 803f 0000 803f
00000010: 0000 803f 0000 803f 0000 803f 0000 803f
00000020: 0000 803f 0000 803f 0000 803f 0000 803f
00000030: 0000 803f 0000 803f 0000 803f 0000 803f
1.0 1.0 1.0 1.0 1.0 1.0 1.0 1.0
1.0 1.0 1.0 1.0 1.0 1.0 1.0 1.0
